storage/1602071791_model.pt (torch_old, 264427 bytes, 10 tensors)

weight f4 [6, 3, 5, 5]
00000000: 9f28 94bd 3d38 1abe c58f 323e 6685 d43e
00000010: d985 6cbd 9cf9 d0bc f803 9bbd 5d44 38be
00000020: 3095 c83d cc2e 303e e8b7 803d cdee a73e
00000030: 16d3 5bbe bf97 64be c696 793e fe21 0e3d
00000040: b7c8 123f 8fd9 8ebd d026 47bf 1daf 983e
00000050: 5790 bdbd c067 f23e e68c d33d 7594 f7be
00000060: 0f07 363d 8d84 b4bd c15a 04be b461 0b3d
00000070: 317d b63c 2bb2 33bd e05b 953d b7d0 8fbd
00000080: 7f6d 6ebe 7c4a 923d 630f c13d 16a5 263e
00000090: 3048 b43e dcf8 c5be 4ac6 05bf 27d2 fd3d
000000a0: 6b83 c23d 4a51 1a3f fd4b debd b082 78bf
000000b0: b2a4 2d3e fff1 a1bd e6ec c53e 56c1 d83c
000000c0: e036 05bf ef10 ef3d fb03 ce3c 8a35 b6bd
000000d0: f13e bf3c e2a7 c33d bc28 63be 584f 0a3e
000000e0: 5674 16bd 24c1 45be 66f0 793c bfe4 6dbc
000000f0: cbdb 2e3e 02f9 e03e 8d08 66be 4eb1 f6be
00000100: 21ed c03d 344b a73e 53e1 363f 1dea 46be
00000110: 7773 65bf 52a4 fd3d 8919 223e 8ed0 243f
00000120: 0bf8 513e 52bd 07bf b1c6 dcbd f27c ca3d
00000130: a800 a73e 1abb 843e 19c3 bd3e 9cad 0c3e
00000140: a445 353d 4382 d13e 6f9e 063f 7063 1a3f
00000150: 5231 d73e 209a 753d bf64 ae3d e45f 303e
00000160: 54a8 853e 5446 ae3e cfd7 9cbe d8e9 6abe
00000170: d28a a0be 5509 09be 244e 0abe 7922 1bbe
00000180: 65b6 2cbe 8972 cdbe 9f33 d1be 56bd 92be
00000190: 4108 e0bd d16d 2c3d f2c6 0e3e 8254 45bd
000001a0: 2992 d8bd 7ac6 1bbe 62e4 12bd 3dbf bcbd
000001b0: c585 943d 4ae2 2ebe 28d7 acbe 7229 62be
000001c0: 20b7 33be bb7f 88be 032b 2dbe f84c 84be
000001d0: f2f4 a2be c877 b0be cc9c a0be 81ec 08be
000001e0: 3482 c33d e953 093e f926 2c3e db1a 13be
000001f0: c441 803c 5400 743e 5027 293e 20c8 743e
00000200: 2b1d b93d 7116 7dbd 7fa8 09be 7d90 0a3d
00000210: be30 a3bd 867e adbd 7223 b33c 61fc 1bbe
00000220: e45a 92be 3b3a 24be 26d1 c3bd 6ed2 a33c
00000230: 7645 90bd d631 a93c ad86 87be 2472 f8bc
00000240: 5667 83bd 0212 ab3e dd7e 983e 462b 733e
00000250: d0d8 9a3e 2bd9 3c3e 400c 633b 4c8c 283e
00000260: 6502 473d e6fd 08bd c1a5 37be 901c d03d
00000270: 964e acbc 4b5f 30be ccc4 15be a6b3 65b9
00000280: 0df1 8ebd 4d26 e3bd 766b cbbc 500e f2bd
00000290: 956f ec3d 444d 06be 3ec7 d2bc 4c73 70bd
000002a0: a511 dabd 4fb1 65bc 0c6f 6cbc 686e 3bba
000002b0: b846 8fbc 15a6 2abe 1aea f83d c31a a93d
000002c0: 8cba 443d 1af4 c23d 6573 4bbe 8fe9 0ebe
000002d0: 040a 9a3d 0c13 acbd 2f7b 4cbe 22f1 63be
000002e0: 1f72 6b3d 4bea 453a 7817 2abe 49fe 4cbd
000002f0: 8c20 74be 39dd ee3d c01d 23be 8d42 a9bd
00000300: 135b 1abe 8a47 68be 4017 183d c182 8dbd
00000310: ae80 47be 5836 2cbe 67ee 74be 3246 153d
00000320: d933 073e 4bfd 3e3d ebd8 423d 1f43 17be
00000330: 9562 32bd b7a2 73bd a579 6dbd 15fb 08bc
00000340: c096 213d f846 663d d83e 22bc aea1 aebd
00000350: b650 76bc 2217 9dbd c5fb c03d 507a f93c
00000360: 1b5c 813d 8a9e e53d 3387 f8bc 96c6 1d3e
00000370: d144 2a3e e87a 1b3e d10a 3c3c 6a59 b73d
00000380: e2af 4d3e b21b 353e 74c5 8b3d 20c8 02be
00000390: 1006 42bc e458 013e 3882 fabd 2083 77bd
000003a0: 950a 26bd 50c7 8bbd f48b 5e3d 11e5 a4be
000003b0: a318 8bbe 65b5 c3be f6ae 87be 3ed2 9abe
000003c0: 7b0e 86be 36d8 00be 3d42 19be 2250 67bd
000003d0: d64c f73c 2176 9fbd 0821 3fbd e103 fcbd
000003e0: 2f0c 3d3d 4bcc 973d 9c56 02bd 4950 21bc
000003f0: 3380 17be ba8d 07be 8133 58be d1d9 bc3b
-0.0723431 -0.15060516 0.17437656 0.41508025 -0.057744835 -0.025509648 -0.07569116 -0.17994829
0.0979408 0.17205352 0.06285077 0.32799378 -0.21467242 -0.22323512 0.24373922 0.034700386
0.57337517 -0.0697509 -0.777936 0.298211 -0.09256046 0.4734478 0.103296086 -0.4835545
0.044440325 -0.088143446 -0.12925245 0.034028724 0.022276493 -0.043871086 0.072929144 -0.07022231
-0.23283957 0.07143113 0.09426763 0.16273913 0.35211325 -0.38666427 -0.5225569 0.12393599
0.09497722 0.6028029 -0.10854337 -0.97074413 0.16957358 -0.07907485 0.38657302 0.026459377
-0.5203686 0.11673152 0.025148382 -0.088969305 0.023345442 0.095535055 -0.22183508 0.1350683
-0.03673204 -0.19311959 0.015255069 -0.014519869 0.17076032 0.43939978 -0.224642 -0.48182148
0.09420229 0.32674563 0.7143757 -0.19425245 -0.8962931 0.12384857 0.15830053 0.6438073
0.20504777 -0.53023255 -0.10780085 0.09887113 0.32617688 0.25923997 0.3706291 0.13738102
0.044255868 0.40919694 0.525855 0.6030798 0.42029816 0.05996144 0.085153095 0.1722408
0.26104987 0.3403803 -0.306334 -0.22940767 -0.31355911 -0.13382466 -0.13506371 -0.15149869
-0.16866453 -0.40126446 -0.40859696 -0.28660077 -0.10939074 0.042096917 0.13943079 -0.048176296
-0.10574753 -0.15212432 -0.035862334 -0.09216163 0.07252077 -0.1707851 -0.337579 -0.22086123
-0.17550325 -0.2665995 -0.16910939 -0.25839972 -0.31827503 -0.34466386 -0.31369627 -0.13371469
0.09546319 0.13410915 0.16811742 -0.14365713 0.01565636 0.2382825 0.16518903 0.23904467
0.090387665 -0.06178898 -0.13443182 0.0338292 -0.07968281 -0.08471398 0.021867488 -0.15232994
-0.2858497 -0.16037838 -0.09561376 0.019997802 -0.070444986 0.020653646 -0.26469937 -0.030327864
-0.06416194 0.33412176 0.2978429 0.23746976 0.3024354 0.18442218 0.0034644753 0.16459769
0.048586268 -0.03344526 -0.17934324 0.10161698 -0.021033566 -0.17223851 -0.14625853 -0.00021906066
-0.069795705 -0.1109129 -0.024831515 -0.11819136 0.1154472 -0.13115412 -0.025729772 -0.058703706
-0.10647897 -0.014019324 -0.0144307725 -0.00071499357 -0.017489776 -0.16664918 0.12154026 0.082570575
0.048029467 0.09519215 -0.19868238 -0.13956283 0.075214416 -0.084020704 -0.19968866 -0.22259954
0.05748188 0.0007549866 -0.16610515 -0.050047193 -0.2384054 0.116632886 -0.15929317 -0.08264647
-0.15073805 -0.2268354 0.037131548 -0.06909705 -0.19482681 -0.16817605 -0.23919068 0.036443897
0.13203372 0.046628278 0.04757015 -0.14771698 -0.043551046 -0.05948135 -0.057977337 -0.008360644
0.039450407 0.056220025 -0.009902678 -0.08526932 -0.015033891 -0.07670428 0.09423021 0.030453831
0.06316396 0.112118796 -0.030337906 0.15407786 0.16627814 0.15183604 0.011477188 0.08952601
0.20086625 0.17686346 0.068247706 -0.12771654 -0.011842266 0.12631565 -0.122318685 -0.060427785
-0.040537436 -0.06825125 0.05433269 -0.32206014 -0.27167234 -0.3822433 -0.26500672 -0.30238527
-0.26182923 -0.12582478 -0.14966674 -0.056472905 0.030188005 -0.07786203 -0.04666236 -0.12305427
0.046154197 0.07412013 -0.03182088 -0.009845802 -0.14794998 -0.13237658 -0.21113397 0.0057632704

bias f4 [6]
00000000: 9bce 58bd 320c 70be 217b b03e 3204 fd3e
00000010: eefb 0dbd cdc3 edbd
-0.05293141 -0.23442152 0.3446894 0.49417263 -0.034664087 -0.11609612

weight f4 [16, 6, 5, 5]
00000000: 4067 f73d db1d 403d 2490 493d 8fc9 33bd
00000010: 8320 3d3d a6dd 46bb 9be0 4c3d a94f c63d
00000020: 5f34 a13d 283f 8ebd 7e4f 04bd 19d3 d93c
00000030: 986c 133e 63e3 123e 8974 6b3d 418d 6e3c
00000040: bc84 d53d f6f5 0c3e 967a 9b3d 3802 013e
00000050: dd6c af3d 5aeb c23d 1556 8ebb f93c 0abe
00000060: 94be 86bc 277d 253b 232a cd3d c70e 9abd
00000070: 50b0 25bd 8dbf 93bd e2b8 e43b 0fbd 80bd
00000080: 6528 b3bc 84ab f13c c03d 673e 45f0 813b
00000090: b5c9 6a3d 1680 ddbd 504f 98bd 33fc ca3d
000000a0: 0437 cf3d f44e d63d 71df 6c3d e6ca 2abd
000000b0: ba40 a13d 4f9b c6bd 49fe 1fbd 914d f73c
000000c0: 686f 4cbc 6621 28be 7bfa 663d 9dd8 83bd
000000d0: 3041 b1bd 2c17 07bd 2ec4 5abd bddc 7c3d
000000e0: 6f8f 183d ac03 153d b006 10bd f26c 9d3d
000000f0: fc90 f73a db69 6ebd 8318 553c a8c5 4a3d
00000100: e9b7 003d a509 cf3c d31b c0bc acf7 373d
00000110: 7e8f 363b 0643 323d cb6f c53d 7bef 4abd
00000120: fd99 adbd bff3 fbbd f337 ecba 0377 723e
00000130: 3102 303e fceb 433e 70e5 ce3d ed58 553e
00000140: f845 9d3e df1e 42bc e780 8ebd 78bc a2bd
00000150: 59c8 abbc 93c8 9f3d d92e e63c 00c5 ad3d
00000160: 658f 353d 19c7 84bd 0242 8a3d c31b 0a3d
00000170: a917 fd3c 12fe c03d 6258 9e3d 323a b03e
00000180: ab21 813d ba03 f63d 751e d73d 2a76 b63e
00000190: 592c 4cbd 0ea9 973c 4c9a 3e3d 686d 47bd
000001a0: 29a3 653d 27cc 4dbe 7a11 5dbd c8a2 cb3d
000001b0: 0e39 483d 3cd8 ef3d ab24 31be b252 4cbd
000001c0: 242c 933b 7b89 cf3c a17e 72bd c803 33bd
000001d0: 74c3 e4bd b237 d4bd 096c a13d b026 dc3d
000001e0: 2287 ed3c 8d18 9ebd 5ad8 a4bd f5ca 80bd
000001f0: c800 ca3d 2b36 f43c 91c0 af3d 9495 253b
00000200: 6d6a 3f3d d8e5 b4bc 8571 0dbe b93b 2bbe
00000210: bfba 35bd 4f9d 83bd 055b a0bd b30c f2bb
00000220: ce0f d1bd 5786 f9bb b7fd a1bd 3dc2 f5bd
00000230: 492e b4bd a20a 67be 86c7 8abe 0688 3fbe
00000240: 5b64 f7bd ab41 6bbd 3f49 79be 5454 25be
00000250: cd7c 11be b3cd 3bbe fb9e 763e 4fdd 4e3e
00000260: de8c 183e b906 e13d 63ce dc3c e5d9 f63d
00000270: 065a 883d 3c6f 1a3e f649 37bd 6b8c 71bd
00000280: 92b3 2d3d 4e93 163d ed2b 043e 5687 783e
00000290: 07a0 a9bd 86ed c3bd 0b82 98b9 dc4e a33c
000002a0: da6b 79bd cf8b 1d3e fe91 e13d d828 ce3b
000002b0: fd3f 763d 2779 9e3d 9995 3f3d e7cc 1ebe
000002c0: 35d1 0cbe 16e0 b53d 9953 9c3d f780 b23c
000002d0: 27d3 fbbd af63 46bd 5f77 c6bd 70de 0f3d
000002e0: 79cc 403e 660a b3bd 72b3 54be 52f6 57be
000002f0: de1e 31be b75d 8e3e f77f adbd b4ca 12bd
00000300: 0c68 03be 8d51 5fbe a905 bbbd 5d87 b3bd
00000310: 4679 4cbd 3b27 80bd 3a33 dbbc bf6c a2bd
00000320: 9469 5a3d 2628 623d dffd 573d 3c4e bd3d
00000330: 6067 82bd c60c f5bd 01d3 043d 40d6 bc3d
00000340: 04bb 923d a5d7 573d e05c 6a39 0da4 cabd
00000350: 441c 3b3b 6770 353e 1ce1 a83b ba64 c4bc
00000360: c292 bf3b 301a d93d 4fed af3d 34a1 82bd
00000370: a5be 273e 84dd c53d 9bf1 dbbc 9702 6e3b
00000380: cae9 42be ff01 80be 4192 8fbe 6aa9 3dbe
00000390: 5293 d63d 3806 3f3e 05f1 24be 9f93 39be
000003a0: 1c90 67be dba1 063d a3dc 263e 92e5 eabd
000003b0: 0d6c 35be d0be 19be 71f0 65be bfca 623d
000003c0: dd78 d6bd fe64 babd 38f3 06be 7dea 933a
000003d0: 46d3 e83d 1204 d43d 7ab7 233c b086 3abb
000003e0: 72b4 dc3d 34db f53d 9646 383e 8d7c 163d
000003f0: 0350 23be a3fc d23d 97e4 c73c c34e e4bc
0.1208024 0.046903472 0.04920973 -0.043893393 0.046173584 -0.0030344515 0.050018888 0.09683163
0.07871317 -0.0694564 -0.032302372 0.026589917 0.14396894 0.14344554 0.057484183 0.014560045
0.10425708 0.13765702 0.07591741 0.12598503 0.08565686 0.09517546 -0.004343758 -0.13499822
-0.016448297 0.0025251599 0.100178026 -0.0752235 -0.040451348 -0.0721427 0.0069800476 -0.0628606
-0.021869848 0.02950073 0.2258215 0.00396541 0.05732127 -0.10815446 -0.07437003 0.099113844
0.10117915 0.10464278 0.057830278 -0.041697405 0.07873674 -0.096975915 -0.039060865 0.030188354
-0.012477733 -0.1641899 0.05639122 -0.064378 -0.08655012 -0.032981083 -0.053409748 0.06173395
0.037246164 0.036380455 -0.035162628 0.07686795 0.0018887813 -0.05820642 0.013006332 0.049504906
0.03142539 0.025273154 -0.023450768 0.044913933 0.0027856524 0.04352095 0.096404634 -0.049544793
-0.084766366 -0.1230235 -0.0018022045 0.23678212 0.17188336 0.1913299 0.101023555 0.20834704
0.30717444 -0.011848181 -0.0695818 -0.07946104 -0.020969557 0.07801928 0.02809851 0.084848404
0.044326205 -0.06483287 0.06750871 0.033717882 0.030895071 0.0942346 0.077317014 0.344194
0.0630525 0.120124295 0.10503856 0.35637027 -0.04984698 0.018513229 0.046533868 -0.048688322
0.056063805 -0.20097409 -0.053971745 0.099431574 0.048882537 0.11711165 -0.17299144 -0.049883552
0.004491346 0.02533411 -0.059202794 -0.043704778 -0.11170092 -0.103621855 0.07881934 0.107495666
0.0289951 -0.077195264 -0.08049078 -0.06288711 0.0986343 0.029810986 0.08581651 0.0025266157
0.046732355 -0.022082254 -0.13812836 -0.16722001 -0.044367548 -0.064264886 -0.078298606 -0.007386768
-0.10208093 -0.0076148915 -0.079097204 -0.11999939 -0.08797891 -0.2256265 -0.2710535 -0.18704233
-0.12079688 -0.057435673 -0.24344347 -0.1614545 -0.14207764 -0.18340187 0.24084084 0.2020161
0.14897487 0.1098761 0.026953882 0.12053279 0.066577956 0.15081495 -0.04474827 -0.058971804
0.04240758 0.036761574 0.12907381 0.24270377 -0.08282476 -0.095667884 -0.0002908859 0.019935064
-0.06089387 0.15385364 0.11014174 0.00629149 0.060119618 0.07737952 0.046773527 -0.15507852
-0.13751681 0.088806316 0.076331325 0.02179001 -0.122961335 -0.04843491 -0.09690737 0.035124242
0.18828 -0.08742218 -0.20771578 -0.21090057 -0.17296931 0.27805874 -0.08471673 -0.035837844
-0.1283266 -0.21808453 -0.09131939 -0.08766053 -0.049920343 -0.062574826 -0.026757825 -0.07930898
0.053323343 0.05521407 0.052732345 0.09243438 -0.063673735 -0.11965327 0.03242779 0.092205524
0.07164577 0.05269589 0.00022350578 -0.098945715 0.0028550783 0.1771866 0.0051537883 -0.023973811
0.0058463523 0.10600698 0.08590185 -0.06378403 0.16381319 0.096613914 -0.026848605 0.0036317462
-0.19034496 -0.25001523 -0.2804127 -0.18521658 0.10477318 0.18654716 -0.16107567 -0.18122719
-0.22613567 0.0328692 0.16295104 -0.11469568 -0.17717 -0.15014195 -0.22455002 0.055369135
-0.104722716 -0.09101294 -0.13178718 0.0011285093 0.11368422 0.10352339 0.009992475 -0.0028461628
0.10776605 0.120047 0.17995676 0.036739875 -0.15948491 0.10302093 0.024400992 -0.027869588

bias f4 [16]
00000000: e324 f7bd 3acf 483f 672a ee3e 76fb 01bf
00000010: b68b 43be 4219 c7be 44f9 fdbe 6c48 2fbf
00000020: f4ad 1f3e 0ee4 bd3e f364 ad3e f4bc 7abe
00000030: 6c80 053f 2b9c 343c ed9d b9be 3ac5 383d
-0.120675825 0.784412 0.46516725 -0.50774324 -0.19096264 -0.38886458 -0.49604237 -0.6846988
0.15593702 0.37088054 0.3386608 -0.24486142 0.5214908 0.0110235615 -0.362533 0.045109965

weight f4 [120, 400]
00000000: d4d4 08be 013b ddbd 8141 b6bc 0a8d 0f3c
00000010: 0afb 5d3c bee0 eb3b 9756 6a3c 4b22 e1b8
00000020: 529a b73d 2ffb 4b3d 13f6 9a3c 9b36 66bb
00000030: 5390 613b 47a3 363c c6a1 e93c ed87 81bd
00000040: 0d88 bcbc a779 a43c d302 a93c ec85 963d
00000050: 19e7 133e c9a9 9d3d 0a1c ddbb aae5 19bd
00000060: 0481 363e 0209 df3d 3d43 893b 6681 fcbc
00000070: dc4e 92bc 5f5c 933d f7fb 67bd ce3e 8d3a
00000080: c449 133b 73cf c13d 608e 053e de52 c53c
00000090: 7ac1 183d 218d 1cbd b1e4 d63c 37bd fb3c
000000a0: 63db 6c3d e6b5 be3c d83a 40bc 8999 67bc
000000b0: bdc4 d53b a1df e23c cef9 8c3d 3da0 d9bc
000000c0: 057e e03c 8334 ad3c 64d5 f63d 424e c93d
000000d0: c099 0fbd 0fb1 143c 7018 433d a996 783d
000000e0: d464 c93d 5444 bb3c e69b 1e3d 5183 3e3d
000000f0: a84b 793d 7d3a a33d a07b 8d3b 8565 f63c
00000100: 3aaf eb3c 46eb c33c 9b78 d73c 1d7a 3a3d
00000110: eafb 6db6 0a30 e93c 16ba 26bd f898 58bd
00000120: 53f9 7ebd 77a1 f9bb 06c0 7dbb 45df 7d3c
00000130: 266c 1e3d 8d75 83bd db07 2cbb 3d81 37bd
00000140: 7429 64bd d4f5 6fbd 29d4 eb3b bcfd 21bb
00000150: 7fed 42bd 5073 72bd 4524 1cbd a5e6 70bc
00000160: 0d74 03bd 296e 983b 6e54 88bc 43a1 db3d
00000170: d34d ad3d ba14 803d 327a 79bd 4490 9bbd
00000180: bdec 203d a120 1fbd 9ac1 79bd 9cba 453c
00000190: d2f5 283e 6312 303d 738f ee3c ff6e b83b
000001a0: 5830 833c 4dea f13c 21c7 923d 8ae2 2f3d
000001b0: bf16 113d 78f5 2d3d 8f3e 033c 6eee 463d
000001c0: 9b2b dabc eef6 873d c2df 45bc 6d67 bbbc
000001d0: a87c a4bd 3c31 58bd 9134 0abc 31df bb3b
000001e0: 5b42 f1bc 5c3c f5bb ec38 d8bc 3180 3d39
000001f0: 208f 58bb 2c37 6dbd f041 7ebd c575 9bbc
00000200: 950e 0a3d b973 1b3d f5fe ad3c 9adf 563d
00000210: 3964 553d e8c7 383d 2f76 553b caf6 3cbd
00000220: 342e b1bc a660 953d aba2 213d ed75 183d
00000230: 4ca3 c0bd d77a d13b 742b 82bc 8ddb 34bd
00000240: 618e b2bc 66b1 fb3b 5bd9 103d 0921 143d
00000250: bc37 833d 7b9b 0a3d d69f 3b3d 2bcd 1a3c
00000260: ae82 97bd 70ea 85bd 5502 893d b436 383d
00000270: cb37 d83c 0585 9dbc 4e38 2fbd 44f0 063d
00000280: 86be a23d e8e5 f7bd 7d4f ecbc 79be 403a
00000290: f8fd 89bd e5f0 913b 7fbc c6bd 93a9 5a3c
000002a0: 1d91 263d 3cd6 d5bb bf9c c1bd fb1c 8abd
000002b0: 9da8 a9bd 4ea1 94bd 6f66 2dbd c39d b03d
000002c0: 1029 9a3d 0b41 713d a611 823d 42fa f0bc
000002d0: 5f07 3fbd d01a 8fbc d845 bd3d 3f57 5c3d
000002e0: c7cb 1e3d c045 48bd f579 a83b c6aa 05bd
000002f0: f78a 3b3d ce09 043d 8e3e cf3c 6446 ab3d
00000300: 32f0 333b 3e3c ad3d 4036 aa3d 4ab4 84bb
00000310: c56b 6dbd cd5d 6f3d b080 cfbc 4c36 b3bc
00000320: 92da 9ebd 8491 0b3d 25c0 783d 0e81 b03c
00000330: c452 103d 8e37 53bd 0c38 13bc a024 653c
00000340: 8bcf 6f3d 4a73 983d dd10 4f3c d86c 423d
00000350: 09cc db3c 73bd 1bba 063e 6c3b cdaa 68bd
00000360: f57d 4cbd 7687 f5bc 2c3a 163d 2a38 edbc
00000370: 1f66 3cbd d0ad 093e 75f6 dbbc d92a 413d
00000380: 97c2 ee3c 22c3 3abe 0f49 8abd 72a3 dbbc
00000390: c2fa 54bc 7d7d a5bd fb90 23bd 0ace 86bd
000003a0: 7c39 cebc 2b45 6dbb 4ec7 053c b3c9 9dbc
000003b0: 33a4 6b3d f2df c7bc 212a f03c c7da a23d
000003c0: 13d1 8b3d f52a c736 b252 113d fdde 49bd
000003d0: c999 403b 70d0 0d3d 3b2b 933d eee5 263c
000003e0: 05b6 cf3c f86c e53c 4300 753d 4304 9ebd
000003f0: 7228 64bd 6b1c 58bd aee0 e4bc 4b17 ce3d
-0.13362437 -0.1080227 -0.022248032 0.008761654 0.013548622 0.007198422 0.014302871 -0.000107352236
0.08964981 0.049800094 0.018916165 -0.0035127762 0.00344183 0.011147327 0.028519522 -0.06324754
-0.023014093 0.02007754 0.02063123 0.07349762 0.14443626 0.076983996 -0.0067477273 -0.03757254
0.17822653 0.1089039 0.0041889236 -0.03082342 -0.017859869 0.07195353 -0.056636777 0.0010776164
0.0022474388 0.09463396 0.13042593 0.024087366 0.03729389 -0.03822053 0.026232095 0.030729873
0.05782641 0.023280095 -0.011732779 -0.014135727 0.006523697 0.027694525 0.06883584 -0.026565665
0.02740384 0.021143204 0.1205242 0.098293796 -0.035058737 0.009075417 0.047630727 0.060690556
0.098336846 0.02285973 0.038722895 0.04651195 0.060863167 0.0797014 0.0043177158 0.030077705
0.028770078 0.023915898 0.026302626 0.045526613 -3.5462385e-06 0.02846529 -0.04070481 -0.052880257
-0.062249493 -0.007618125 -0.0038719191 0.015495126 0.038677357 -0.064189054 -0.00262498 -0.044800986
-0.055703595 -0.05858405 0.0071969223 -0.0024717888 -0.047589775 -0.059192 -0.038120527 -0.014703427
-0.032093097 0.004651804 -0.016641822 0.107241176 0.084621094 0.06253953 -0.06090755 -0.07595876
0.03928827 -0.038849477 -0.06097565 0.012068417 0.16500023 0.042986285 0.029121136 0.005628466
0.016014263 0.029530669 0.07166887 0.042940654 0.035422083 0.042470425 0.008010521 0.048567228
-0.02663212 0.06638895 -0.012077274 -0.022876466 -0.08031589 -0.05278133 -0.008435384 0.0057333936
-0.029450586 -0.007484002 -0.02639433 0.000180722 -0.0033044294 -0.057913944 -0.0620746 -0.018977055
0.033705313 0.03795216 0.021239737 0.052459337 0.052097533 0.04511252 0.0032571664 -0.046133794
-0.021628477 0.07293825 0.039461773 0.037221838 -0.094061464 0.0063928175 -0.01588986 -0.044154692
-0.021796407 0.0076810597 0.035363536 0.036164317 0.06407115 0.033839684 0.04580673 0.00944833
-0.07397972 -0.06538856 0.06689898 0.044974044 0.026393792 -0.019228468 -0.042778306 0.03294398
0.07946496 -0.12104398 -0.028846497 0.00073526014 -0.06737894 0.0044537657 -0.097039215 0.013346094
0.040665735 -0.006525783 -0.09453725 -0.06743809 -0.082841136 -0.07257329 -0.042334016 0.08623841
0.07527363 0.05889992 0.063510224 -0.029416207 -0.04663789 -0.01746884 0.09241837 0.05379414
0.038768556 -0.048894644 0.0051414915 -0.032633565 0.045786824 0.032235913 0.025298383 0.08363035
0.00274564 0.08458756 0.083111286 -0.0040498124 -0.057964105 0.058439065 -0.025329918 -0.021876477
-0.07756533 0.03407432 0.06073012 0.021545913 0.03523518 -0.051566653 -0.008985531 0.013985783
0.058547538 0.07443865 0.012638298 0.047467083 0.02683069 -0.0005941011 0.003604771 -0.056803513
-0.04992481 -0.02997182 0.03667657 -0.028957445 -0.045995828 0.1344521 -0.026850918 0.047160003
0.029145522 -0.182385 -0.06752216 -0.026811335 -0.012999238 -0.080805756 -0.039933186 -0.065822676
-0.025173895 -0.0036204557 0.008165194 -0.019261217 0.05752964 -0.024398778 0.029316964 0.07951885
0.06826987 5.935663e-06 0.035479255 -0.049284924 0.0029388538 0.03462261 0.0718598 0.010186655
0.025355348 0.028006062 0.059814703 -0.077156566 -0.055702634 -0.052761476 -0.027939167 0.100630365

bias f4 [120]
00000000: 3528 8abd 583f 253e 27e6 bfba e396 9cbd
00000010: 5324 6d3d 88dd 54bb 852a 213e d320 5a3e
00000020: 100b dfbd e080 6a3d a787 9a3d 50bf cbba
00000030: 9557 c53c 55fa 17bd 1e1d f83d 2d03 89bd
00000040: e9a4 e73d af0b 1c3e e1cd 803d a9a3 143d
00000050: 37aa 3c3d d257 dfbd 08a6 9d3d 1fb3 8b3d
00000060: 3e35 88bd 906e d63c 2f9d 82bc bac0 c43c
00000070: aca0 873d 7962 74bd dd34 bc3d 5008 de3d
00000080: 7edb 8ebc c6be 5dbd dfec e33c 01cf 1cbd
00000090: b1db 2f3c c7ca 623c b6ff 14bc 1a69 9f3d
000000a0: 5050 c93c 2592 b4bb cecc 1ebd e1b2 f23b
000000b0: c4ed d63c 7300 843d 07d0 523e 4b70 2e3e
000000c0: 6e40 203d 0c3b ecbd bb34 5d3c 09e3 e1bc
000000d0: 52cd 36bd e404 12bd ed2f 8f3c 9c9a 7fbd
000000e0: 594d 9d3d 969c c13d 5e6f 853d 51c1 4abc
000000f0: 6e90 b7bd 8470 51be 6c91 e1ba 9d3a 963d
00000100: 2ed8 23bc 36cc 953c b6a2 943d 34a1 09bd
00000110: 6ea6 28bd 1f66 763d 900c 803d 9a8d d53c
00000120: d801 51bd 1727 3d3d f254 4e3e cc23 213d
00000130: 89d6 053e d491 c03d 49cc 643d 14f0 78bd
00000140: 0cd9 97bc e07d 243d b2c5 4e3d ad71 923c
00000150: 045c 4dbd b27e 7dbb 9097 143e fd0f 1bbe
00000160: ed62 0f3d 3d9e 80bd bbd2 183c a6bf 733d
00000170: f6cf e2bc cf08 09bd 9866 ac3a 7bc6 2a3d
00000180: b5ae 823c fbf0 3fbb 9e42 25bd c57e 4cbe
00000190: fa6b 1cbd 6bde 1abd 43a0 903d 31d4 35bd
000001a0: b654 5e3c 7827 253c e867 08bb 03bc 4c3d
000001b0: cec2 a73d 3246 8d3c 308f 843d f054 1e3d
000001c0: 8b42 1dbc feb5 883d 41df bebd fcdb 99bd
000001d0: a35a 083d 8a06 413d 70a2 07bd 5267 223e
-0.0674595 0.16137445 -0.0014640734 -0.07645967 0.05789597 -0.0032480676 0.15738876 0.21301584
-0.10890782 0.05725181 0.07545405 -0.0015544686 0.024089614 -0.03710397 0.12114929 -0.06690059
0.11310751 0.15238832 0.06289268 0.03628889 0.046060767 -0.10905422 0.076976836 0.06821274
-0.0665078 0.026175767 -0.015944092 0.02401768 0.066224426 -0.059664223 0.0918977 0.10841429
-0.017438646 -0.054137014 0.02782291 -0.03828335 0.010733531 0.013842291 -0.009094169 0.077837184
0.024574429 -0.005510586 -0.038769536 0.007406578 0.026236422 0.06445398 0.20587169 0.17035024
0.039123945 -0.115347 0.013501341 -0.02757408 -0.044629402 -0.035649195 0.017478907 -0.062403306
0.076807685 0.094536945 0.06515382 -0.012375192 -0.08963095 -0.20453078 -0.0017209477 0.07335398
-0.010000272 0.018285852 0.07257597 -0.033601 -0.041174345 0.060155984 0.06252396 0.026068497
-0.05102715 0.046179857 0.20149592 0.03934078 0.1307012 0.094028145 0.055858884 -0.06077583
-0.018536113 0.040159106 0.050481506 0.01787647 -0.05013658 -0.0038680253 0.14510942 -0.15142818
0.035006452 -0.062801816 0.009327586 0.059508942 -0.027687054 -0.033455666 0.0013153134 0.041693192
0.015952447 -0.0029287923 -0.040346734 -0.19970234 -0.038188912 -0.03780977 0.070618175 -0.044391815
0.013570001 0.010080211 -0.0020813886 0.04998399 0.08191453 0.017245386 0.06472623 0.03865522
-0.009598385 0.06675337 -0.09319926 -0.07512662 0.033289563 0.047125377 -0.033113897 0.15859726

weight f4 [84, 120]
00000000: 6dee 60bd 8e2d 213c 1f28 bbbd 493b 99bd
00000010: c308 e4bb 59d3 1d3d ca2b 343d 3200 6fbd
00000020: cb94 c7bd 6059 7f3d cde8 ac3c f3c6 313c
00000030: e92b b63d 759b c03d b899 acbd 7e52 c53d
00000040: 178b 99bd 5774 863d 69ea 13bd 8afd a6bd
00000050: 9047 4a3d 2dae 663c cc9b 50bd 94d9 b8bd
00000060: 6101 203d f2ac 56bd 8bf3 8abd d920 963d
00000070: 4d9d 363d d97e 303b 73d5 a03d 19d6 19bd
00000080: 0196 123d 2294 693d 51c2 a13c 37fc 2dbd
00000090: 4e60 93bc e820 36bd f99a 2f3d 84c1 a1bd
000000a0: 234b e7ba f4c6 7bbd fc6b 763d 38b2 72bd
000000b0: ce98 143c 4509 4dbb a304 00bc ee11 cabc
000000c0: 1cf6 6ebd 0d23 b33d 7dcf a13d ff17 01bd
000000d0: c732 f73c 6713 843d ccae d13c 8e94 233d
000000e0: 8a02 b13b 80da 423d 1fc1 07bb 654d 133d
000000f0: 8fc3 29bc 8804 803c fb79 a03d 290b ef3c
00000100: 51f2 8b3b 3015 aabd b239 c2bd 1938 ae3d
00000110: 9383 fc3c 3e15 aebb 6e57 97bc e6ae 78bd
00000120: 3d06 2b3d ad02 3c3d 871d 28bd 4f97 523d
00000130: a573 11bc 82e8 163c 8af4 41bd 9ec0 443c
00000140: c885 b9bd c299 0bbd 768a d53d 329c 833d
00000150: 2bbd a4bd ca12 42bd 77e5 dfbd e7af e33c
00000160: 831b 943d 0449 8b3d f87f a23d 6f8b 10bd
00000170: 1b6a ca3c 360e a1bd 7ee5 823d ed9c 72bc
00000180: 5caa 8b3c ddbb 01bd 1eaf 8fbd bfdf 75bd
00000190: 8d06 b4ba 7c3f 183d da90 b3bc da85 eb3d
000001a0: eaf5 32bc 5895 ab3d e82e d83b d6ee e23c
000001b0: fa13 babc 37a8 a03d 340b 0e38 1d65 8d3d
000001c0: a9e4 c5bc 151f 883d 3d61 e4bc a152 1b3d
000001d0: 661f bfbd 2510 b7bd e9bb 0cbd 495d acbd
000001e0: bc6d ebbd 0fdd 24be f27b 32bc f295 fa3d
000001f0: 7679 75bd 88ae 2b3d dd18 583e fb30 4a3d
00000200: 57b6 f93d bb07 41bd 190a 743b f59b 943c
00000210: 40c2 babd 0181 34be ef4d a83c 4844 f93d
00000220: 58b9 df3c 4517 613d 6b2a 873e e95c a73d
00000230: 2bc7 2fbd 3e92 553e 5dcc 833d b5c7 9e3d
00000240: a684 2cbd 6a39 703d 763c 853c d15a 53bc
00000250: 1600 233e 1ef0 c3bd 7a49 97bd d974 f4bd
00000260: 8610 d33b 173b aabd 5c55 063e babc 993d
00000270: a7ff 30bb aede 2d3d e04a 853d 8538 d1bd
00000280: 4be6 d1bd 1184 32bc 2ff8 eabd 928a 0bbd
00000290: a6de e13c 9330 573c d9fb 4b3d 1d75 f1bd
000002a0: ebbc 8dbd 33e1 e8bd 036e 87bc 0415 7cbd
000002b0: eec8 8ebd 0cf6 873d 1c38 8e3d 8f51 833d
000002c0: e6b8 7a3d ef9e 3cbe 36fb 0c3e 8790 b53c
000002d0: 3976 823d d92d 6c3d 07ab b2bc 88b6 9c3d
000002e0: 94bd e0bd 5957 2abd 5fba 663c f3a7 21be
000002f0: ba5a c9b8 cbd0 09bc 063e 8bbb 0f35 a73d
00000300: ee03 953d bfbe cbbb 00a1 40be 1701 f5bc
00000310: d201 cc3d c77c b6bd 53a8 f6bd 66a4 fcbd
00000320: 37cf 463e baef 53bd f54e d53d 3936 bbbc
00000330: 22b6 89bd eac7 e13d 0f3a 753d 0b4e b6bc
00000340: f3b7 8ebd 693f 3c3b 5a61 213d 6442 b2bb
00000350: 0d78 acbd 068d 8abd 1bbf f43d 0f3d 333c
00000360: cfc0 cbbc 321e 583d 9e84 fbbd 879f c33b
00000370: c09c 00bd 191d cebd 7b3e 343d 126c 323e
00000380: 95a6 7c3c 385b a53c dc0d 23bd 933b c83d
00000390: 3940 69bd 61aa 1bbc 546c 7dbe 7f56 8cbc
000003a0: a235 c7bd fbbc 8bbd 73c4 d43d 570b cabc
000003b0: 5963 1c3c 9dc2 9c3d cb88 41bd d589 9bbd
000003c0: 4923 9abd 907f 143d 600d 413d 9a90 12bb
000003d0: 65c9 c13c 0b62 a9bd 446e ab3d 0de1 e3bd
000003e0: 252e 45bd 218f efbd 0944 4bbd b061 683c
000003f0: 5e06 e5bc 6b3f 653d 9202 0e3d 71dd 6dbd
-0.05491488 0.009837521 -0.09138512 -0.07482011 -0.0069590523 0.038531635 0.043987073 -0.058349796
-0.09745177 0.062341094 0.021107102 0.010850656 0.08895094 0.09404651 -0.08427757 0.09634875
-0.074972324 0.06565159 -0.036112223 -0.081538275 0.049384654 0.014079613 -0.05092983 -0.09025875
0.039063815 -0.052411027 -0.067847334 0.07330484 0.044583607 0.0026931076 0.07853212 -0.037557695
0.035787586 0.057026036 0.019745978 -0.04247686 -0.017990258 -0.044464976 0.042872403 -0.07898238
-0.0017646294 -0.061469033 0.060161576 -0.059251994 0.009069635 -0.0031286043 -0.0078136055 -0.024666753
-0.058340177 0.0874692 0.079009034 -0.031517025 0.03017558 0.06449013 0.025596045 0.039936595
0.005401914 0.04757166 -0.0020714474 0.03596248 -0.010361566 0.01562716 0.07835766 0.029180126
0.0042708297 -0.083048224 -0.09483661 0.085067935 0.030824458 -0.005312591 -0.018474307 -0.06071367
0.041753996 0.04590099 -0.041043784 0.05141383 -0.008877669 0.009210708 -0.04735235 0.012008814
-0.0905872 -0.03408218 0.104268 0.06426276 -0.080438934 -0.0473812 -0.10932439 0.027793838
0.0723181 0.06801036 0.07934564 -0.035289224 0.024708798 -0.07864039 0.063914284 -0.014807922
0.017049007 -0.0316733 -0.07015823 -0.060027834 -0.0013734862 0.03716992 -0.021919657 0.115001395
-0.010922888 0.083780944 0.0065973885 0.027701776 -0.022714604 0.078445844 3.3865872e-05 0.069040515
-0.024156885 0.066465534 -0.027878398 0.037920598 -0.09332161 -0.08938626 -0.034358893 -0.0841623
-0.114955395 -0.16099952 -0.010893809 0.12235631 -0.059930287 0.041914493 0.21103235 0.049363118
0.12192982 -0.047126513 0.0037237464 0.018140772 -0.091190815 -0.17627336 0.020544974 0.12171227
0.027310058 0.054953832 0.2639955 0.08172018 -0.04291455 0.20856568 0.064354636 0.07752935
-0.04211869 0.058648504 0.016264182 -0.01290007 0.15918002 -0.09567283 -0.073870614 -0.119363494
0.0064411787 -0.08312052 0.131185 0.075067 -0.002700785 0.042448692 0.06508422 -0.10215858
-0.10249003 -0.010895745 -0.114731185 -0.034067698 0.027571987 0.01313414 0.049800728 -0.11789916
-0.06920799 -0.11371078 -0.01653195 -0.06154348 -0.06971918 0.066387266 0.06944296 0.064120404
0.06121149 -0.18420003 0.13767704 0.022163643 0.063702054 0.05766091 -0.021810068 0.076520026
-0.10973659 -0.041587207 0.01408252 -0.15786724 -9.601326e-05 -0.0084115965 -0.004249337 0.08164417
0.0727614 -0.006217807 -0.18811417 -0.029907746 0.09961285 -0.08910518 -0.12043824 -0.12336044
0.19414984 -0.051742293 0.104154505 -0.022853004 -0.06724192 0.11024459 0.059869822 -0.02225401
-0.06968679 0.002872432 0.039399482 -0.0054400433 -0.08421335 -0.06765179 0.11950513 0.0109398505
-0.024872212 0.05276317 -0.12281154 0.005969945 -0.03139949 -0.10064144 0.0440049 0.17424038
0.015420576 0.020185098 -0.03980814 0.09776988 -0.056946013 -0.009501071 -0.24748355 -0.017131088
-0.097270265 -0.068231545 0.10389032 -0.02466361 0.009545171 0.07654307 -0.047249597 -0.07594649
-0.07526261 0.036254466 0.047131896 -0.0022364021 0.023655603 -0.08270653 0.08370641 -0.111269094
-0.04813971 -0.116972215 -0.04962543 0.014183447 -0.027957138 0.055968683 0.03467042 -0.05807251

bias f4 [84]
00000000: a32b ea3b acc5 95bd 3350 ff3c 157e 993e
00000010: 6186 3b3e ea4a a23d a93e cf3d 221f 003e
00000020: f583 6bbd be13 b03d a902 16be a04c d8ba
00000030: 63a7 0d3c a6e6 173e 197a cfbb 67f3 143e
00000040: e35a 943d 2b37 abbc 987e 0a3e b73a 463e
00000050: 20b1 18bd 8be4 b4bc 3e7c b73c 5bdb e0ba
00000060: f8e5 523d a48b b43d 0c81 4b3d b229 6bbd
00000070: e1b9 a0bd b354 043e 5a31 32be ed15 863d
00000080: acea c33d 81d3 76bd 7145 433e 5d33 5ebd
00000090: 1097 c03d b4fd 9a3d eb39 2ebe c1d7 91bd
000000a0: ff96 17bd 9e22 593e 96e9 b7bd 13b6 0e3b
000000b0: 2f4f 123e b90e af3c 0385 81bd 8c5f 4fbd
000000c0: e19b a83e ffde 763b fa57 d7bd ecbc 42be
000000d0: 0a83 cc3c 7c4a 4f3d e684 e9bd 2d1d dd3d
000000e0: 155b 723e a9f4 cf3e 40e9 123d e33a 153d
000000f0: c642 01bd 0388 743e 7283 29bd 9354 51bd
00000100: 7e58 5dbe fc1c 6dbd 5cd5 163d c1d2 11bd
00000110: e147 5c3e 8661 723e 2cb2 4b3d c712 f33d
00000120: f848 1cbe e030 5e3d e9b1 273d 807a 783d
00000130: fd75 983c 4690 09be e69c 51be 6054 e33d
00000140: fe6a cebd 137e 633d 5c79 5c3e d4bf f0bc
0.007146315 -0.073130935 0.031166172 0.29979005 0.1831298 0.07924445 0.10119373 0.12511876
-0.05749889 0.085975155 -0.14649452 -0.0016502328 0.008645865 0.14834079 -0.006331694 0.14545976
0.07243898 -0.02090033 0.13524854 0.19358335 -0.037278295 -0.022081634 0.02239811 -0.0017155217
0.051488847 0.08815697 0.049683616 -0.05741281 -0.078479536 0.12922935 -0.17401639 0.06547151
0.095662445 -0.0602603 0.19069459 -0.054248203 0.09403813 0.07567921 -0.17014281 -0.0712123
-0.037009235 0.21204612 -0.089801 0.0021776005 0.14288019 0.021369325 -0.06324198 -0.05062823
0.32931426 0.0037669537 -0.10514827 -0.1901738 0.024964828 0.050608143 -0.114023015 0.107965805
0.23667558 0.40616348 0.035866976 0.036433112 -0.03155782 0.2388001 -0.04138512 -0.051106047
-0.21615788 -0.05788897 0.03682457 -0.03560138 0.21511795 0.23670015 0.049730465 0.11868816
-0.1526221 0.05424583 0.040941153 0.0606637 0.018610949 -0.13433942 -0.20470008 0.11100078
-0.10079001 0.055540156 0.2153067 -0.029388346

weight f4 [10, 84]
00000000: 1437 ab3d 397a 353e 7dc2 e53d 09e2 c03e
00000010: 681e 04be 794b 823e 0554 b0be d163 c23c
00000020: 5196 c2bd de4c a8be ef85 683e cfe3 6cbc
00000030: abe7 c8bd b41c dabd 9ec2 103d ada7 ac3d
00000040: bf7f f7bd 2e1b 123e dd61 4abe f69c 01be
00000050: ae37 283e fe83 eebd 5e64 e03d 844c bcbd
00000060: 1190 27be a8f3 00be 968f 24bd cecb 893e
00000070: c2a2 563e 29c5 033e c479 7d3e 72f9 4cbe
00000080: 9c37 913e 54db d0bd 585e 2fbe 56ac 7d3d
00000090: 4c1d 153e 15a1 b63d 8128 50bd 756f 42be
000000a0: b77a caba 4701 743e faac 8fbd 84dd f9bd
000000b0: c7ce 96be 7df0 13bd 6041 9b3e 7209 52bd
000000c0: 057a 9bbe f221 873b da54 84bd c464 743e
000000d0: 3b48 f33d e40f 4a3d af13 67be 45c5 0cbd
000000e0: da09 6fbe 27ae 7bbe 6ddd 733d ea35 26bc
000000f0: 7705 cabd 438d 863d a0f3 80be 79a5 273d
00000100: 03ca c4bc 0d14 2f3d ebf8 06bd 2100 8c3e
00000110: 35ba d13d 8495 3a3e 9d29 d4bd 2a03 733e
00000120: 17f1 02be ee9a cf3d 997c 7dbd e23d 313d
00000130: a7d8 aa3e cb60 113e 836b 0f3e 6b39 83be
00000140: 1839 e53d f166 653d 6c93 ea3d 42ad 0b3e
00000150: f1bf 6dbd b0de b03d 6f26 2f3e d2c4 2fbe
00000160: c3ba cdbe 8542 98be 3d91 843d 558d 12be
00000170: 85a8 203e 961b 123e f566 8a3e f6e1 df3c
00000180: 4628 173e 8125 6fbe 4a03 673e 4d3a 8abe
00000190: e624 a9be cbbd f53b bb3b 473e 7918 d3bd
000001a0: 8ccb 2b3e 55dd e43c 17d6 eabc 83bb f33d
000001b0: 9aee 8a3d 7c9d 79bd bb2a 1b3e be32 c33d
000001c0: c918 093d c4db 37bd 0487 a7be c039 893d
000001d0: 4e61 99bc c5a4 0a3d 2b93 42be b28b 443e
000001e0: ba32 09bd 2c68 b13e 925e ac3e 8a96 50bd
000001f0: 1bce 813e e625 793e b217 4ebe 1926 d03d
00000200: 1b2e 41be 78cc 973c cc22 bf3d 9102 45bd
00000210: 4fea a7be 46a6 1ebd 6b9c a1bd 50c5 81be
00000220: f0e8 093e 26a3 33be fed7 77bd 5f80 22bd
00000230: 394e 36be 1a3e b1be 7d03 16be 6081 31be
00000240: 799f 90bd a02a 20be 719b 103e 7f57 8d3e
00000250: 90cb b33e cd8d 1f3d b50a 4ebd 5cfe f43c
00000260: c257 65be 2606 3ebe 35d0 61be 41a4 cbbc
00000270: 8173 7e3e 9ac9 a8be 4218 d33d 7a75 da3a
00000280: b148 62bb 2988 583e 5f37 bdbd 73c3 ea3d
00000290: b1f2 62bd 1c7f 843d 10ed 7cbe e793 9b3e
000002a0: df50 04be 28ce d9bd 1cc5 10be 68b8 19be
000002b0: 5314 a63d ae0e f53d c1d3 143e 9f32 4a3e
000002c0: 570d c93e acb5 8e3c 2900 623d 74c0 83be
000002d0: 1e67 7f3d c4c0 4a3e 87ad dbbc fe87 913e
000002e0: 8e1f 8e3e 968c 27bd ea4e ddbe 72a2 903e
000002f0: 24e1 69be a9d9 20bd 64ab a43d 70ed ccb9
00000300: 9087 2fbe 8133 bcbd f10f 67be b78d af3d
00000310: 981d aebd a1c1 f23b bdfd 4d3d 519f 28be
00000320: 1228 6d3e d31d 63bd b0f9 233e 1eb0 413a
00000330: bb64 6c3c e388 2c3d a4f1 e13d 12cb dabd
00000340: 912e 3c3d 70d5 393d be7b 42bd 823c 0ebe
00000350: 6262 54bc 36ed 243e 60eb a1bd b6c6 d0bd
00000360: 3d0e 01bd 6196 8dbd 7f82 cebd 1124 cb3d
00000370: b676 6cbe 0d3e 993b e36f d0bd e259 b63d
00000380: 252d 003e a14d df3d 4512 16be 1540 1fbe
00000390: d59d 31bd 90c8 91bd e15a a73d 78c0 68be
000003a0: 7089 cdbd 7306 02bd e231 a5bd d08c 8cbc
000003b0: 8df2 793d 83fc 2dbe 187e 393d e706 5ebe
000003c0: 385e 49bd 146f a63e a27f fabd 8096 a2bd
000003d0: 3991 8d3e bc44 8e3e e52e 5b3e 0021 0f3f
000003e0: 0c2b 133e be51 56bd 2782 6a3d 5929 97be
000003f0: 54ae 07be aa2a f8bd 32d2 8fbd 754a 86be
0.08360115 0.17722405 0.11218736 0.3767245 -0.12902224 0.25448206 -0.34439102 0.023729237
-0.09501327 -0.32871145 0.22707342 -0.014458611 -0.09809812 -0.10650006 0.03534185 0.08430419
-0.120849125 0.1426818 -0.19763894 -0.12657532 0.1642749 -0.11646269 0.109566435 -0.09194282
-0.1636355 -0.12592947 -0.040175997 0.26913303 0.20960525 0.1286818 0.24753481 -0.20017031
0.2836274 -0.101980835 -0.17125833 0.06193193 0.14561957 0.08917443 -0.050819878 -0.1898783
-0.0015447949 0.23828612 -0.070154145 -0.12200454 -0.29454634 -0.03611802 0.30323315 -0.05127854
-0.3036653 0.0041239196 -0.06461497 0.23866564 0.11879011 0.04933156 -0.22566102 -0.03436782
-0.23343602 -0.24578153 0.05953734 -0.01014469 -0.098643236 0.06569912 -0.2518587 0.04092929
-0.024022108 0.04274373 -0.03295223 0.27343848 0.10240594 0.18221098 -0.103594996 0.23731676
-0.12787281 0.10136972 -0.061886404 0.043271907 0.33368418 0.1419708 0.14005856 -0.25629744
0.111925304 0.056006376 0.114539 0.13640311 -0.058044378 0.08636224 0.17104505 -0.17164925
-0.4018155 -0.2973825 0.064730145 -0.14311726 0.15689285 0.14268336 0.27031675 0.027329426
0.14761457 -0.2335415 0.22559848 -0.26997605 -0.33035964 0.0074994317 0.19456379 -0.10307402
0.16776866 0.02793757 -0.02866654 0.119009994 0.06783791 -0.060941204 0.15153019 0.09531163
0.033470903 -0.04488732 -0.32720196 0.06700468 -0.018723156 0.033848543 -0.19001453 0.19193915
-0.033495642 0.3464979 0.336659 -0.050924815 0.25352558 0.24330863 -0.20126227 0.101635166
-0.18865244 0.018530115 0.09332809 -0.04809815 -0.3279595 -0.03873279 -0.078911625 -0.2534585
0.13467765 -0.17542705 -0.06050872 -0.039673205 -0.17803277 -0.34617692 -0.14649768 -0.17334509
-0.07061667 -0.1564126 0.14121796 0.27605817 0.35116243 0.03895359 -0.05030318 0.029906444
-0.22396758 -0.18557033 -0.22052081 -0.024858596 0.24848749 -0.3296631 0.10307361 0.0016667091
-0.003452819 0.21145691 -0.09239077 0.1146306 -0.05540723 0.06469557 -0.24699807 0.30386278
-0.12921475 -0.10635024 -0.14137691 -0.15011752 0.08109345 0.119656906 0.14533903 0.19745873
0.3926799 0.017420612 0.055175934 -0.25732768 0.0623542 0.19800097 -0.026816143 0.28424066
0.2775845 -0.040905558 -0.4322427 0.28248936 -0.2283979 -0.039270077 0.08040503 -0.00039086817
-0.17141557 -0.09189511 -0.22564675 0.08571952 -0.08501738 0.0074083363 0.05029081 -0.16467024
0.23159817 -0.055448364 0.16013217 0.0007388609 0.014428313 0.042122733 0.110324174 -0.10683264
0.045942847 0.045369565 -0.04748129 -0.1389027 -0.012962909 0.16106114 -0.07906222 -0.10194151
-0.03150772 -0.06913448 -0.10083484 0.099189885 -0.2309216 0.0046765865 -0.10177591 0.089038625
0.12517221 0.109034784 -0.14655407 -0.15551789 -0.04336341 -0.071183324 0.08171631 -0.22729671
-0.1003598 -0.03174443 -0.08066155 -0.017156988 0.06102233 -0.16990857 0.045286268 -0.2168232
-0.04916212 0.3250662 -0.12231375 -0.07938862 0.2764986 0.27786815 0.21404608 0.5590973
0.1437189 -0.05232405 0.05725303 -0.29523733 -0.13250095 -0.121175125 -0.070225134 -0.2622868

bias f4 [10]
00000000: 66a9 a9bd bf84 c2be 979e 09bc 9a2d 01bd
00000010: 954d 3e3f 5a04 44be 8853 9cbd 4bbb 33be
00000020: acd1 143f 4657 b2bd
-0.08284263 -0.37991902 -0.008399627 -0.03153763 0.7433713 -0.19142285 -0.0763312 -0.17551915
0.58132434 -0.08708052
