storage/1602073125_model.pt (torch_old, 264427 bytes, 10 tensors)

weight f4 [6, 3, 5, 5]
0	0xbd511fa8	-0.05105558
1	0xbde81fd0	-0.11334193
2	0x3e01748f	0.1264212
3	0x3e9dba7c	0.3080634
4	0x3c71089a	0.014711523
5	0x3c8100e4	0.015747495
6	0x3cc115c7	0.023569955
7	0xbe136ad8	-0.14396226
8	0xbd60cefb	-0.054884892
9	0x3e20b624	0.15694481
10	0x3dc626cf	0.09675371
11	0x3e9971a3	0.2996951
12	0xbe0861ac	-0.13318509
13	0xbe62b1e0	-0.22138166
14	0x3e0332ef	0.12812398
15	0x3e052bfe	0.13005063
16	0x3edbf76d	0.42962208
17	0xbdbe7069	-0.09298784
18	0xbf1c4c04	-0.6105349
19	0x3e47ea71	0.19523026
20	0x3da0d688	0.078534186
21	0x3ec66e7c	0.38756168
22	0xbcc5e914	-0.024158992
23	0xbedf9889	-0.43671063
24	0x3d5d413a	0.054017283
25	0xbdbc42bd	-0.09192417
26	0xbdcf034d	-0.101080514
27	0x3c8ef5fb	0.017451277
28	0xbd3944e3	-0.04523171
29	0x3c9aba82	0.018887762
30	0x3d887eb1	0.066647895
31	0x391ca117	0.0001493733
32	0xbe37c010	-0.1794436
33	0xbd1bda76	-0.038050137
34	0x3d8a9ae7	0.067678265
35	0x3e26750c	0.16255587
36	0x3e9a0411	0.30081227
37	0xbe939847	-0.28827116
38	0xbef91ecf	-0.48656318
39	0xbbe1efba	-0.0068950327
40	0x3e1e647c	0.15468019
41	0x3ee4c099	0.4467819
42	0xbdc4f1e1	-0.09616447
43	0xbf429300	-0.76005554
44	0x3d7370b5	0.059433658
45	0x3d06d5c9	0.032918725
46	0x3e8ae6c4	0.27129185
47	0xbda4f4aa	-0.080544785
48	0xbee47ded	-0.44627324
49	0x3de30a9f	0.1108601
50	0x3d063aec	0.032771036
51	0xbd91cf0f	-0.071195714
52	0x3beaa360	0.007160589
53	0x3d2ca1e6	0.042146586
54	0xbe094f0b	-0.13409059
55	0x3defc3a7	0.117072396
56	0x3a977551	0.0011555349
57	0xbe0c82a1	-0.13721706
58	0xbd38cd7d	-0.045117844
59	0x3b6d6904	0.0036225924
60	0x3e1ba9c0	0.15201473
61	0x3eb5dd1f	0.35520265
62	0xbdf1082b	-0.11769136
63	0xbec0cafd	-0.37654868
64	0x3cc469ec	0.023976289
65	0x3eafd0a2	0.34338862
66	0x3eff795f	0.49897286
67	0xbe343869	-0.17599644
68	0xbf1cdd7f	-0.61275476
69	0x3db2debf	0.08733892
70	0x3e5a186e	0.21298382
71	0x3ede32d9	0.4339817
72	0x3d999c43	0.07500508
73	0xbeccc3f4	-0.3999325
74	0xbd40b7d8	-0.047050327
75	0x3e0c1336	0.13679203
76	0x3ea07bec	0.31344545
77	0x3e751f93	0.23937826
78	0x3ea77bd4	0.3271166
79	0x3df09a00	0.11748123
80	0x3d49939e	0.049213044
81	0x3eb94289	0.36183575
82	0x3ed11316	0.40834874
83	0x3ee804d4	0.45316184
84	0x3e9aaf39	0.3021181
85	0x3db59b3f	0.088675015
86	0x3d9bb34b	0.07602557
87	0x3e15ebf1	0.14640786
88	0x3e40c0f1	0.18823601
89	0x3e8240a7	0.2543995
90	0xbe81cac7	-0.2535002
91	0xbe1f5ff6	-0.1556395
92	0xbe5d72b9	-0.21625794
93	0xbd6142b5	-0.054995257
94	0xbe03d613	-0.12874632
95	0xbd9b998b	-0.07597645
96	0xbdcef77e	-0.10105799
97	0xbea3a885	-0.31964508
98	0xbea13b9f	-0.314908
99	0xbe5ca16e	-0.21545956
100	0xbda41ec4	-0.080136806
101	0x3d499403	0.04921342
102	0x3e2a8d49	0.16655459
103	0xbca424db	-0.020037105
104	0xbd5e2653	-0.054235768
105	0xbdc170ca	-0.09445341
106	0x3c77e4fb	0.015130277
107	0xbdad29f7	-0.0845527
108	0x3d870b53	0.06593957
109	0xbe29ccd5	-0.16582043
110	0xbe88c419	-0.2671211
111	0xbe111bfd	-0.14170833
112	0xbdc9860a	-0.09840019
113	0xbe75405d	-0.23950334
114	0xbe3e8637	-0.18605886
115	0xbe85ee75	-0.2615849
116	0xbe8e03c1	-0.2773724
117	0xbe87d64f	-0.26530692
118	0xbe8011e7	-0.25013658
119	0xbe209d89	-0.15685095
120	0xbca9abb4	-0.020711757
121	0x3ce73ae6	0.028226327
122	0x3dc46357	0.0958926
123	0xbe32a2ec	-0.17444962
124	0xbcec84a4	-0.028871842
125	0x3e3ad406	0.18244943
126	0x3dc9e123	0.098573945
127	0x3e54676b	0.20742576
128	0x3d9a1c26	0.075249
129	0xbd2d8ef9	-0.042372677
130	0xbe061a45	-0.13095959
131	0x3d27246a	0.04080621
132	0xbdc715fb	-0.09720989
133	0xbdb1e924	-0.08687046
134	0x3d31e07b	0.043426972
135	0xbdd1c38c	-0.10242376
136	0xbe6314c6	-0.22175893
137	0xbdc6899c	-0.09694216
138	0xbd5c5060	-0.05378759
139	0x3d12cb6f	0.03583854
140	0xbd8ee914	-0.0697805
141	0x3d6c8993	0.05774839
142	0xbe550faa	-0.20806757
143	0x3ce38cb5	0.027777055
144	0xbd81a20b	-0.06329735
145	0x3e8094d2	0.2511354
146	0x3e51f555	0.20503743
147	0x3e1ede37	0.15514456
148	0x3e842287	0.25807592
149	0x3e196bbb	0.14982502
150	0xbc267daf	-0.010161801
151	0x3ded45be	0.11585568
152	0x3bdbbb3e	0.0067056706
153	0xbbfd8e6c	-0.0077379253
154	0xbde943b7	-0.11389869
155	0x3d9bf525	0.07615117
156	0xbc06e1ee	-0.008232577
157	0xbe0a1af4	-0.13486844
158	0xbd9af6b7	-0.07566588
159	0xbc8c1b12	-0.017102752
160	0xbd9a84c7	-0.075448565
161	0xbdbc7e4c	-0.09203777
162	0x3ce55014	0.027992286
163	0xbd505e74	-0.050871328
164	0x3d5a5f7a	0.05331371
165	0xbde363b0	-0.11102998
166	0x3701c55f	7.734953e-06
167	0xbd1c1429	-0.038105164
168	0xbd5570da	-0.052109577
169	0xbdc51f40	-0.09625101
170	0xbd950a38	-0.0727734
171	0xbd129bbf	-0.035793062
172	0xbd347c39	-0.04406378
173	0xbe00bde2	-0.12572435
174	0x3d21d228	0.03950706
175	0x3b4e9f3f	0.0031528024
176	0xbcf4d93f	-0.029888747
177	0x3d189b6d	0.0372576
178	0xbe519e0c	-0.20470446
179	0xbdf00592	-0.117198125
180	0x3c3cb23c	0.011517104
181	0xbdaa8b2d	-0.08327327
182	0xbe33db27	-0.17564069
183	0xbe39c4d0	-0.18141484
184	0x3c175af9	0.009237998
185	0xbc9ab9f9	-0.018887507
186	0xbe1838df	-0.14865445
187	0xbb4ed740	-0.0031561404
188	0xbe3a846c	-0.18214577
189	0x3d0ba302	0.034091003
190	0xbdf7b8f9	-0.120958276
191	0xbcb5057a	-0.022097338
192	0xbdd15107	-0.10220533
193	0xbe1bae5c	-0.15203232
194	0xbd2b86fc	-0.041876778
195	0xbd72d9b0	-0.059289634
196	0xbe1f626d	-0.1556489
197	0xbe0309a6	-0.1279665
198	0xbe1c1a55	-0.1524442
199	0xbcd8b2d2	-0.026452456
200	0x3e06fb34	0.13181764
201	0x3d159bb4	0.036525443
202	0x3cf33f85	0.029693374
203	0xbdff710c	-0.12472734
204	0x3cd974c7	0.026544942
205	0xbd6cb329	-0.057788048
206	0xbbd59ad1	-0.0065186997
207	0x3cc315c8	0.023814097
208	0x3d86ff37	0.06591647
209	0x3d263778	0.040580243
210	0x3bd50a62	0.006501482
211	0xbd64631b	-0.055758577
212	0xbb5f22a0	-0.0034047738
213	0xbd893089	-0.066987105
214	0x3cefb16a	0.029259402
215	0x3d6b286c	0.057411596
216	0x3db71dc0	0.08941221
217	0x3dc67b8e	0.09691535
218	0xbc6a8988	-0.014315017
219	0x3d9b2ee9	0.07577307
220	0x3e17800f	0.14794944
221	0x3e16afa8	0.14715445
222	0xbcbd229f	-0.023087798
223	0x3de34af0	0.110982776
224	0x3e027b77	0.1274241
225	0x3df70f03	0.1206341
226	0x3cc8c8ed	0.024509871
227	0xbe16caba	-0.14725772
228	0xbde47f84	-0.11157134
229	0xbcd6ddee	-0.026228871
230	0xbdacefe4	-0.08444193
231	0xbcf65975	-0.030071953
232	0x3c08556c	0.008321147
233	0xbda2b202	-0.079441085
234	0xbc345b6d	-0.011008126
235	0xbe5ebf4d	-0.21752663
236	0xbe160cf2	-0.14653376
237	0xbe79ffb4	-0.24413949
238	0xbe4519e1	-0.19248153
239	0xbe8b2540	-0.27176857
240	0xbe59927b	-0.21247284
241	0xbd6c4aeb	-0.057688635
242	0xbd72b6da	-0.059256412
243	0xbcd4c6f1	-0.025973769
244	0xbbe3777c	-0.006941734
245	0xbd8bcd8e	-0.06826316
246	0xbd0e2e0a	-0.034711875
247	0xbdde277e	-0.10847376
248	0x3ba822a9	0.005131085
249	0xbd67ce47	-0.056593206
250	0x3cec8e92	0.028876577
251	0x3c6b614d	0.01436646
252	0xbdd5bea0	-0.104367495
253	0xbe08b6ad	-0.13350935
254	0xbe48f2cc	-0.1962387
255	0x3cd9c79b	0.026584437

bias f4 [6]
0	0x3d3005b3	0.042974185
1	0xbe599fa4	-0.21252304
2	0x3ea9d6c0	0.33171654
3	0x3ed5464d	0.41655198
4	0x3b832621	0.004002348
5	0xbe0c2cdc	-0.13688987

weight f4 [16, 6, 5, 5]
0	0x3e156bbe	0.14591882
1	0x3c203a62	0.009779545
2	0x3c653d75	0.013991703
3	0xbd6e6286	-0.058199428
4	0x3ca621f5	0.020279864
5	0xbb08a727	-0.0020851584
6	0x3d474979	0.048654053
7	0x3e0a6759	0.13515987
8	0x3d949da6	0.072566316
9	0xbd8da689	-0.0691653
10	0xbdcfb67d	-0.10142229
11	0xbc8955d3	-0.016764557
12	0x3d60819b	0.0548111
13	0x3df430d0	0.11923373
14	0x3d329f6c	0.043609068
15	0x3c5170bb	0.012783225
16	0x3d1ccd79	0.03828189
17	0x3d4b13a5	0.04957928
18	0x3d1627c7	0.03665903
19	0x3d955c7d	0.07293031
20	0x3d9017c0	0.0703578
21	0x3d839800	0.06425476
22	0xbc7a2290	-0.015267029
23	0xbe081081	-0.13287546
24	0x3ab5c6ae	0.0013868415
25	0x3d55ff31	0.052245323
26	0x3e03ddd8	0.12877595
27	0xbd2d53b8	-0.04231617
28	0xbd54cae2	-0.051951297
29	0xbd5f45e8	-0.054510027
30	0x3cdf8c83	0.02728868
31	0xbc2caf89	-0.010539898
32	0x3c7eac0b	0.015543948
33	0x3bba85c9	0.005692218
34	0x3ddf9771	0.10917557
35	0x3d117999	0.035516355
36	0x3d7ad917	0.06124219
37	0xbd0dde7e	-0.034636013
38	0xbca46c86	-0.02007128
39	0x3dc5dc7a	0.09661193
40	0x3daf6a72	0.08565225
41	0x3d8c1d05	0.068414725
42	0x3d8da5c3	0.06916382
43	0xbccf599c	-0.025311284
44	0x3ca15391	0.019693168
45	0xbd3508a5	-0.044197697
46	0xbd4f7631	-0.050649825
47	0xbbbb2d58	-0.0057121925
48	0x3c676010	0.014122024
49	0xbdc4f93b	-0.096178494
50	0x3d6ca565	0.05777492
51	0xbcbc0353	-0.022950804
52	0xbda35f2f	-0.07977139
53	0xbd1ed3f6	-0.03877636
54	0xbc8c58fb	-0.017132273
55	0x3d50c33f	0.05096745
56	0x3d857cfd	0.0651798
57	0x3c2422c8	0.010018058
58	0xbd4726d8	-0.04862103
59	0x3dc20ff9	0.09475703
60	0xbce45d19	-0.027876424
61	0xbd93f2f3	-0.07224073
62	0xbd42e0f4	-0.047577813
63	0x3c5d3dbc	0.013503488
64	0x3d18a694	0.037268236
65	0xbc416430	-0.011803672
66	0xbd265de3	-0.04061688
67	0x3c7cd75c	0.015432205
68	0xbbfb19fe	-0.0076630106
69	0x3d8ab6a0	0.06773114
70	0x3d57d3c5	0.052692194
71	0xbd9cf9ab	-0.07664808
72	0xbdb88782	-0.09010221
73	0xbdb64c6f	-0.08901297
74	0x3d59b0ca	0.053147115
75	0x3e67b3f4	0.2262724
76	0x3e24435c	0.1604132
77	0x3e2594d4	0.16170055
78	0x3e19c601	0.15016939
79	0x3e6519f3	0.2237318
80	0x3e873c07	0.26412985
81	0xbc95c8d1	-0.018284233
82	0xbd44e337	-0.04806825
83	0xbcb500ee	-0.02209517
84	0x3cb8ebed	0.022573436
85	0x3ddbd80e	0.107345685
86	0x3d777210	0.060411513
87	0x3dc22952	0.094805375
88	0x3d79f863	0.061027896
89	0xbc105e8a	-0.008811602
90	0x3dc026fe	0.09382437
91	0x3d82b1ef	0.063815944
92	0x3cc00a08	0.023442283
93	0x3d9d095c	0.07667801
94	0x3deb887f	0.11500644
95	0x3e899a64	0.26875603
96	0x3dd24684	0.10267356
97	0x3e437cd5	0.19090588
98	0x3e06cc09	0.1316377
99	0x3eaac613	0.33354244
100	0xbd617f5e	-0.055053107
101	0x3d4dcffc	0.050247177
102	0x3c582642	0.013192715
103	0xbcb0c8f4	-0.021580197
104	0x3cfbb8b1	0.030727716
105	0xbe3e94f9	-0.18611516
106	0xbcc94da4	-0.024573155
107	0x3e1c7c01	0.15281679
108	0x3d39513f	0.045243498
109	0x3de05f12	0.10955633
110	0xbe132cc3	-0.14372544
111	0xbd4e1fef	-0.050323423
112	0xbd1f5bb5	-0.038905818
113	0x3d8c3f94	0.06848064
114	0xbcb94d14	-0.022619762
115	0xbd34d341	-0.04414678
116	0xbdf1c2be	-0.11804722
117	0xbd6484d9	-0.055790756
118	0x3da68f65	0.08132819
119	0x3d8fd439	0.070229
120	0x3c88d276	0.016701918
121	0xbda39a3f	-0.079884045
122	0xbdbdf48d	-0.0927516
123	0xbd90ef77	-0.07076924
124	0x3dc97080	0.09835911
125	0x3beeb8cc	0.007285213
126	0x3da395d2	0.0798756
127	0xbc948815	-0.018131295
128	0x3d03debd	0.03219484
129	0xbce800e2	-0.028320733
130	0xbdf713c8	-0.1206432
131	0xbe0cd1ba	-0.1375188
132	0xbc74fdda	-0.014953101
133	0xbce6c1da	-0.028168608
134	0xbd5c9193	-0.053849768
135	0xbd28929a	-0.041155435
136	0xbe163fe9	-0.14672817
137	0xbd5b1723	-0.05348886
138	0xbd68f9a9	-0.05687872
139	0xbda486e1	-0.080335386
140	0xbdc2cb2f	-0.095114104
141	0xbe25f6b1	-0.16207387
142	0xbe235f13	-0.15954237
143	0xbe110166	-0.1416069
144	0xbd40b7af	-0.047050174
145	0xbdbd1fa0	-0.092345476
146	0xbde51a92	-0.111867085
147	0xbe072441	-0.13197424
148	0xbe094aec	-0.13407487
149	0xbdfc2ae5	-0.12312869
150	0x3e87eda1	0.26548484
151	0x3e374c25	0.1790014
152	0x3e477ed7	0.1948198
153	0x3d30a239	0.043123458
154	0xbc0e61b5	-0.008690287
155	0x3dbb4180	0.091433525
156	0x3d8d3c03	0.06896212
157	0x3de7db47	0.11321121
158	0xbbf6870d	-0.0075234235
159	0xbcb49b5f	-0.022046743
160	0xba00e755	-0.00049172837
161	0x3c3ddac9	0.011587807
162	0x3e1e9543	0.15486626
163	0x3e28d994	0.1648925
164	0xbd817343	-0.063208126
165	0xbd9bd5ab	-0.07609113
166	0x3b8bd1c4	0.0042669494
167	0x3bbd0751	0.0057686944
168	0xbd4cf451	-0.050037686
169	0x3e025199	0.1272644
170	0x3da03033	0.07821693
171	0xbb35970a	-0.0027708434
172	0x3d83eb88	0.064414084
173	0x3d8c0b37	0.068380766
174	0x3d9770cc	0.07394561
175	0xbddd6850	-0.10810912
176	0xbdfb352e	-0.122660026
177	0x3da3ddf0	0.080013156
178	0x3da4bebd	0.08044193
179	0x3d459f5f	0.04824769
180	0xbda716dc	-0.08158657
181	0xbd03912b	-0.032120865
182	0xbdc4f2d3	-0.096166275
183	0xbd03e72c	-0.032202885
184	0x3e2bafd7	0.16766296
185	0xbd9aa975	-0.075518526
186	0xbe18df5b	-0.14928953
187	0xbd7cb102	-0.061692245
188	0xbdf5c4af	-0.12000405
189	0x3e239966	0.15976486
190	0xbd99d6b9	-0.07511658
191	0xbd805b47	-0.0626741
192	0xbdee1c02	-0.11626436
193	0xbde7e57c	-0.113230675
194	0xbd693289	-0.05693296
195	0xbdabba96	-0.08385198
196	0xbd9d2b41	-0.07674266
197	0xbdd00cac	-0.10158667
198	0xbcbef91a	-0.02331214
199	0xbd2d1206	-0.042253517
200	0x3dbc4a43	0.09193852
201	0x3d90bc88	0.070672095
202	0x3d9423ec	0.07233414
203	0x3d467fc1	0.04846168
204	0xbdc530bb	-0.09628435
205	0xbdd285f3	-0.10279455
206	0x3d45686b	0.048195284
207	0x3ddffb75	0.109366335
208	0x3cd752f6	0.026284676
209	0x3cdbe00a	0.026840229
210	0x3b7c52a8	0.0038501415
211	0xbd8f4e54	-0.06997362
212	0x3c6a2aec	0.01429246
213	0x3debc97c	0.115130395
214	0x3b4ffb85	0.003173561
215	0x3ac41d69	0.0014962378
216	0xbba03804	-0.00488949
217	0x3d918f07	0.071073584
218	0x3d8a8c65	0.067650594
219	0xbd0d877b	-0.034553032
220	0x3e0e6954	0.13907367
221	0x3d8cc38b	0.06873234
222	0xbd3adf7b	-0.045623284
223	0xbb816341	-0.0039485996
224	0xbde1c16d	-0.11023221
225	0xbe513e6b	-0.20433967
226	0xbe6cae39	-0.23113336
227	0xbe3e9430	-0.18611217
228	0x3d2ab934	0.04168053
229	0x3e27b40f	0.1637728
230	0xbe026e48	-0.12737381
231	0xbdf2222e	-0.118229255
232	0xbe48fdae	-0.19628021
233	0x3cf50c94	0.029913224
234	0x3e14eac3	0.1454268
235	0xbdc61b9c	-0.09673235
236	0xbe06097a	-0.13089553
237	0xbda56d1b	-0.08077451
238	0xbe2763e5	-0.163467
239	0x3d1b5673	0.03792424
240	0xbdbe578c	-0.09294042
241	0xbd01498d	-0.031564284
242	0xbda582e3	-0.08081605
243	0x3d222c37	0.039592948
244	0x3dc0032f	0.09375607
245	0x3d9a255a	0.075266555
246	0xbd134156	-0.03595098
247	0xbc4e6ebe	-0.012599645
248	0x3db2888c	0.087174505
249	0x3dc996d4	0.09843221
250	0x3e5f7bc7	0.21824561
251	0xbcfd631b	-0.030931046
252	0xbd5bc720	-0.053656697
253	0x3da8bcc5	0.0823913
254	0x3d6f6551	0.058446232
255	0xbad8a99c	-0.001653004

bias f4 [16]
0	0xbd6538b2	-0.055962272
1	0x3f1b5031	0.6066924
2	0x3eaa2393	0.33230266
3	0xbe9fba73	-0.31196937
4	0xbe5389a3	-0.20657973
5	0xbe5be330	-0.21473384
6	0xbec43d49	-0.38328007
7	0xbf00e7db	-0.50353783
8	0x3d58d63f	0.052938696
9	0x3e811e78	0.25218558
10	0x3e1fd7e0	0.15609694
11	0xbe42b707	-0.19015132
12	0x3e920cc0	0.28525352
13	0xbb6e0d5d	-0.0036323883
14	0xbe84ff3f	-0.25975987
15	0xbbc07bf1	-0.00587415

weight f4 [120, 400]
0	0xbdadc191	-0.084841855
1	0xbd96aa19	-0.07356662
2	0xbc899bf2	-0.016797993
3	0x3bbeaceb	0.0058189533
4	0xbcb4604a	-0.02201857
5	0x3cdc6eb8	0.026908264
6	0x3d822566	0.063547894
7	0x3d0a5ed3	0.033781838
8	0x3da0c0f3	0.07849302
9	0x3d0c5e74	0.034269765
10	0x3d1f3223	0.038866173
11	0x3cb04714	0.021518268
12	0x3ca88358	0.020570442
13	0x3d0fab9c	0.03507577
14	0x3cc0ab6f	0.023519246
15	0xbcb126c4	-0.02162493
16	0x3ba14ae7	0.004922259
17	0x3cc77f9a	0.024352837
18	0x3ccbf8d1	0.024898918
19	0x3d80a2dd	0.06281064
20	0x3e06e61f	0.13173722
21	0x3dcbb12a	0.09945901
22	0xbc2cb042	-0.01054007
23	0xbca52457	-0.02015893
24	0x3e0a992a	0.1353499
25	0x3de1525b	0.11002036
26	0xb97930e9	-0.00023764711
27	0xbca1d6f5	-0.01975582
28	0x3ca1a50e	0.019732025
29	0x3dc3e78c	0.095656484
30	0xbcea175c	-0.028575592
31	0x3c5f8ee8	0.013644911
32	0xbcd4c714	-0.025973834
33	0x3dcdf08d	0.10055647
34	0x3e097d84	0.13426787
35	0x3b17b40d	0.002314809
36	0x3beb242f	0.0071759443
37	0xbcc97c0b	-0.024595281
38	0x3c541f43	0.0129469065
39	0x3d377dcb	0.0447977
40	0x3d494126	0.049134396
41	0x3bf684b9	0.007523146
42	0xbca212af	-0.0197843
43	0xbd3cd5cc	-0.04610233
44	0x3c299203	0.010349753
45	0x3bb6d841	0.0055799787
46	0x3d46c6ee	0.048529558
47	0xbc0a332a	-0.00843505
48	0xbbb91739	-0.0056485203
49	0xbc7c682a	-0.015405694
50	0x3da2f947	0.07957702
51	0x3cad0b78	0.021123633
52	0xbcea21b0	-0.028580517
53	0x3c9fc1d9	0.019501613
54	0x3d5d0a70	0.053965032
55	0x3d834397	0.06409376
56	0x3d90bf50	0.0706774
57	0x3ce139d2	0.027493391
58	0x3ceddf1b	0.029037049
59	0x3c992f37	0.018699272
60	0x3d78316b	0.060594004
61	0x3d829dbc	0.06377742
62	0x3c98428e	0.018586423
63	0x3d11e2e2	0.035616763
64	0x3d7f3c89	0.06231359
65	0x3d6a9566	0.057271384
66	0x3d4fc40c	0.050724074
67	0x3c93449c	0.017977051
68	0xbc9982e8	-0.018739179
69	0x3cc91e4a	0.024550576
70	0xbc78ac23	-0.015177759
71	0xbcf71f8b	-0.030166408
72	0xbd3222e5	-0.04349031
73	0xbba29a5e	-0.0049622497
74	0x3b9eac21	0.0048422967
75	0xbc0cde84	-0.008597974
76	0x3cf9da1c	0.03049951
77	0xbd80fc7a	-0.06298156
78	0x3b635e81	0.003469378
79	0xbcf13212	-0.02944282
80	0xbda49f2f	-0.08038174
81	0xbd0a3c41	-0.03374887
82	0x3d2ad2dd	0.041705
83	0x3c53fc93	0.012938636
84	0xbd45208c	-0.048126742
85	0xbd826db5	-0.06368581
86	0xbc535423	-0.012898478
87	0x3ca3dc23	0.02000243
88	0xbd21e3de	-0.03952395
89	0xbcf72002	-0.03016663
90	0xbd4fdd7f	-0.050748345
91	0x3d6c59f8	0.05770299
92	0x3d926520	0.07148194
93	0x3d224937	0.039620604
94	0xbd6dae1d	-0.058027375
95	0xbd711ad5	-0.05886348
96	0x3bdfd39b	0.0068306453
97	0xbc3fa7d1	-0.011697725
98	0xbca2bc8d	-0.019865299
99	0x3af3bd34	0.0018595816
100	0x3db591c0	0.0886569
101	0x3cc39759	0.02387588
102	0x3983d6c3	0.00025146277
103	0xbbba42a6	-0.0056842146
104	0x3c400c78	0.011721723
105	0x3d0e1f6c	0.034697935
106	0x3cbf5bae	0.023359146
107	0x3d0f3ae9	0.03496829
108	0x3c3e37ec	0.0116100125
109	0x3cb3ad93	0.021933353
110	0xbb9b89ab	-0.004746636
111	0x3d21d6c6	0.039511465
112	0x3b4c497a	0.0031171725
113	0x3d117b69	0.035518084
114	0xbbec5c60	-0.0072131604
115	0x3c677373	0.014126646
116	0xbd6e1d05	-0.058133144
117	0xbd3b0495	-0.045658667
118	0x3ba347ad	0.0049829097
119	0x3b2f61f6	0.002676127
120	0xbd35a988	-0.04435113
121	0x3bcd1c0b	0.0062594465
122	0x3b4d1c59	0.0031297414
123	0x3d1e8fdc	0.038711414
124	0x3cce01e6	0.02514739
125	0xbd079f8d	-0.033111144
126	0xbc24660a	-0.010034094
127	0xbcfcf07d	-0.030876392
128	0x3d6792aa	0.056536354
129	0x3c5a03d8	0.0133065805
130	0x3cddb0f0	0.02706191
131	0x3d4618b6	0.04836341
132	0x3d4525a9	0.04813162
133	0x3d4ea4da	0.050450183
134	0xbc44c7a6	-0.0120104905
135	0xbd039d0a	-0.032132186
136	0xbd8c3bab	-0.06847318
137	0x3ce2b370	0.027673453
138	0x3ccf052a	0.025271017
139	0x3d121b11	0.035670344
140	0xbd927669	-0.07151491
141	0x3ccfe8d8	0.025379583
142	0x3a9f51a3	0.0012155067
143	0xbcbc2633	-0.022967434
144	0xbc6609d9	-0.014040434
145	0x3cbfa14f	0.023392348
146	0x3c9b4259	0.018952535
147	0x3d17d43f	0.037067648
148	0x3c7173b4	0.014737058
149	0x3d532bdc	0.0515555
150	0x3cc9954f	0.024607329
151	0x3d1b7e24	0.037962094
152	0xbd33daf5	-0.043909986
153	0xbd05afdf	-0.032638427
154	0x3d4b9acf	0.049708184
155	0xbcbb9474	-0.022897936
156	0xb8d2ae93	-0.00010046097
157	0xbcee75fb	-0.029108992
158	0xbceb44e1	-0.028719367
159	0x3cd0cabd	0.025487298
160	0x3d7b4c0a	0.061351813
161	0xbda33fd0	-0.07971156
162	0xbae05a32	-0.0017116724
163	0xbc7b9e56	-0.015357574
164	0xbd3314d0	-0.04372102
165	0xbca133c1	-0.019677998
166	0xbd6d8707	-0.0579901
167	0x3c20106a	0.009769538
168	0x3d4945c3	0.049138796
169	0xbc1a8a65	-0.00943241
170	0xbd6fa451	-0.058506314
171	0xbc901b20	-0.01759106
172	0xbd734faf	-0.059402164
173	0xbd53131a	-0.05153189
174	0xbbb0295d	-0.0053760246
175	0x3d5a5b33	0.05330963
176	0x3d809702	0.062788025
177	0x3d3ee1ce	0.046602063
178	0x3d92435c	0.07141754
179	0xbcf1768e	-0.029475477
180	0xbc91c525	-0.017794201
181	0xbc84c549	-0.016207354
182	0x3d8b3071	0.06796349
183	0x3d47c3e7	0.04877081
184	0x3cb503ab	0.022096476
185	0xbd65c98a	-0.056100406
186	0x3b0855c1	0.0020803066
187	0xbd1151b0	-0.035478294
188	0x3d20611e	0.03915512
189	0xbbc78ba2	-0.0060896436
190	0x3d175566	0.036946677
191	0x3d86923b	0.0657086
192	0x3a7a8043	0.00095558556
193	0x3d8f0354	0.06983057
194	0x3d8c6552	0.06855263
195	0x3cf926ab	0.030413946
196	0xbd6801a0	-0.056642175
197	0x3d216c7c	0.0394101
198	0xbcc254dc	-0.023722105
199	0xbd147981	-0.036248688
200	0xbdc3fca6	-0.09569673
201	0xbd2593b9	-0.040424082
202	0x3cbe0f40	0.023200631
203	0xb88fd0fc	-6.857698e-05
204	0x3d14c2e0	0.03631866
205	0xbd54b757	-0.05193266
206	0xbcb50118	-0.022095248
207	0x3cc5f74e	0.024165776
208	0x3d6d440c	0.057926223
209	0x3dad2c15	0.084556736
210	0x3c404e63	0.011737439
211	0x3d1b1d05	0.037869472
212	0x3d075318	0.03303823
213	0x3d17e185	0.037080307
214	0xbc52c298	-0.012863778
215	0xbceafeb1	-0.0286859
216	0xbd61d36b	-0.055133265
217	0xbd1790da	-0.037003376
218	0x3d28325b	0.041063648
219	0xbd056c23	-0.03257383
220	0xbda4cfb8	-0.08047432
221	0x3d9b6d44	0.075892
222	0xbd00f3ef	-0.031482633
223	0x3cbcff22	0.023070876
224	0x3d32e900	0.043679237
225	0xbd4482c0	-0.047976255
226	0xbc5b4413	-0.013382929
227	0x3b8e4b34	0.004342461
228	0xbbf311b2	-0.007417881
229	0xbd37d339	-0.044879172
230	0xbd009699	-0.03139362
231	0xbd0690fd	-0.032853115
232	0xbc8582bb	-0.016297689
233	0xbce6a52e	-0.028154936
234	0x3b931924	0.004489081
235	0x3b5c6834	0.0033631446
236	0x3d4df82f	0.050285514
237	0xbb36eeda	-0.0027913363
238	0x3d646f48	0.05577019
239	0x3dbe6db2	0.092982665
240	0x3d4fcec4	0.050734296
241	0xbc53b8ae	-0.012922449
242	0x3d0f6b1b	0.035014253
243	0xbd6680a0	-0.05627501
244	0x3ccb01a8	0.024781063
245	0x3cdc911a	0.026924659
246	0x3d950b2a	0.0727752
247	0x3ce45921	0.027874531
248	0xb9da98cb	-0.0004169404
249	0x3d126528	0.035741
250	0x3d41d74a	0.047324456
251	0xbd24ff16	-0.04028233
252	0xbd80698d	-0.06270132
253	0xbd4a601c	-0.049408063
254	0xbc811653	-0.015757715
255	0x3d62c6b4	0.05536528

bias f4 [120]
0	0xbd14e029	-0.03634659
1	0x3e080ccf	0.13286136
2	0x3be814fe	0.0070825806
3	0xbd7f2b2f	-0.062297042
4	0x3d0b2729	0.033972893
5	0xbc34ec34	-0.011042643
6	0x3deb8f54	0.11501947
7	0x3e30aff0	0.17254615
8	0xbdb4f67b	-0.08836075
9	0x3cf4eb43	0.029897338
10	0x3d04ef58	0.03245482
11	0x3b805728	0.00391664
12	0x3c4203b0	0.0118416995
13	0xbd41bcad	-0.047299076
14	0x3da21078	0.079132974
15	0xbd71b825	-0.059013505
16	0x3dbc5ed3	0.09197774
17	0x3de1ed6d	0.110316135
18	0x3d0eaf45	0.03483512
19	0x3c0f5b5a	0.008749807
20	0x3d3b0f49	0.045668874
21	0xbda69c90	-0.08135331
22	0x3d80a2d9	0.06281061
23	0x3d8d107e	0.06887911
24	0xbd49ee66	-0.04929962
25	0x3c9b3a1b	0.018948605
26	0xbc46df30	-0.012138173
27	0x3d19e105	0.03756811
28	0x3d6741b4	0.056459144
29	0xbd3df376	-0.04637476
30	0x3d498854	0.04920228
31	0x3db87cfe	0.09008215
32	0xbcb1eeb1	-0.021720262
33	0xbd1db043	-0.038498174
34	0x3aa8451e	0.0012837981
35	0xbd1ab8c9	-0.03777388
36	0x3c650199	0.013977432
37	0x3c5b384b	0.0133801205
38	0xbb758512	-0.003746335
39	0x3d0aa5b6	0.03384944
40	0x3c9b79f8	0.018979058
41	0xbbdfe54f	-0.0068327556
42	0xbcaa20b0	-0.02076754
43	0x3ab3e331	0.0013724325
44	0x3d377fb5	0.044799525
45	0x3cc5e7db	0.024158409
46	0x3e275187	0.16339694
47	0x3e08917b	0.13336746
48	0x3d2b79f3	0.041864347
49	0xbda2ab04	-0.07942775
50	0x3c68a482	0.014199378
51	0xbcfb1a22	-0.03065211
52	0xbc6932ff	-0.01423335
53	0xba66a828	-0.0008798861
54	0x3cc8ebbc	0.02452647
55	0xbd343edb	-0.044005256
56	0x3da6537d	0.08121393
57	0x3d44caac	0.048044845
58	0x3d311247	0.04323032
59	0xbce4ecf8	-0.027945027
60	0xbdab11f9	-0.083530374
61	0xbe28eed6	-0.16497359
62	0xbaa2c4ed	-0.0012418308
63	0x3d13891b	0.036019426
64	0x3c4ed395	0.012623687
65	0x3cca25c9	0.02467622
66	0x3d5d854f	0.05408221
67	0xbd6515d6	-0.055929027
68	0xbd208382	-0.039187916
69	0x3cc5307c	0.02407097
70	0x3cf5c1a4	0.029999562
71	0x3cd4600f	0.02592471
72	0xbd4e609d	-0.050385106
73	0x3c79b886	0.015241748
74	0x3e1211e3	0.14264636
75	0x3d007ab1	0.031367008
76	0x3dfc2154	0.12311044
77	0x3d5aee67	0.053450014
78	0x3d356b75	0.044291932
79	0xbd442cc1	-0.047894243
80	0xbd0c4a32	-0.034250446
81	0x3ccea98d	0.025227332
82	0x3c38dabd	0.01128262
83	0x3c89025b	0.016724756
84	0xbd162caa	-0.03666369
85	0xbcb65aee	-0.022260156
86	0x3dcf52e9	0.10123236
87	0xbdf6558b	-0.12028035
88	0x3d0f74a3	0.035023343
89	0xbd6dc9da	-0.05805383
90	0xbb899bbf	-0.0041994746
91	0x3d2b9be7	0.041896727
92	0xbcb70a03	-0.022343641
93	0xbd0d4ae7	-0.03449526
94	0xbc6a2df9	-0.014293187
95	0x3d2da991	0.04239804
96	0x3d0f54c5	0.034992952
97	0x3ba898ea	0.005145182
98	0xbd00ff8d	-0.031493712
99	0xbe1c7546	-0.15279111
100	0xbd085d5f	-0.03329217
101	0xbd3271c3	-0.043565523
102	0x3ce0e725	0.027453968
103	0x3a440d23	0.0007478764
104	0x3c2f24e6	0.01068995
105	0xbb1e4b42	-0.0024153744
106	0xb9628321	-0.00021601889
107	0x3cecd4f0	0.02891013
108	0x3d9eed89	0.0776015
109	0x3cfa5744	0.03055919
110	0x3d382aa3	0.044962537
111	0x3cbc6c43	0.023000842
112	0x3c85220a	0.016251583
113	0x3d81d924	0.063402444
114	0xbdaf9d66	-0.08574943
115	0xbd870dbd	-0.06594417
116	0x3d13aee3	0.036055457
117	0x3d2584cf	0.04040986
118	0xbc503ed2	-0.01271029
119	0x3e151046	0.14556989

weight f4 [84, 120]
0	0xbd75527e	-0.059893124
1	0x3ca0b2fe	0.0196166
2	0xbdafc419	-0.085823245
3	0xbd5ca45b	-0.05386768
4	0x398c116a	0.00026715855
5	0x3d237907	0.039910343
6	0x3cd722a6	0.026261639
7	0xbd7a7180	-0.0611434
8	0xbd9b82bf	-0.07593297
9	0x3d54c4ad	0.051945377
10	0x3ce4880a	0.0278969
11	0x3d014794	0.031562403
12	0x3d8fbf42	0.070189014
13	0x3dbdca5a	0.09267111
14	0xbd97794d	-0.07396183
15	0x3d9855eb	0.074382626
16	0xbd96b26a	-0.073582485
17	0x3d82f884	0.06395057
18	0xbd1ef339	-0.038806174
19	0xbda752ac	-0.08170065
20	0x3d5ce23c	0.05392669
21	0x3cad2437	0.021135433
22	0xbd21e6b1	-0.039526645
23	0xbda2c6e8	-0.079480946
24	0x3c90ac06	0.017660152
25	0xbd7ef670	-0.06224674
26	0xbd93b2a6	-0.07211809
27	0x3d641aed	0.05568974
28	0x3d072416	0.0329934
29	0xbc2f4294	-0.010697026
30	0x3d866c77	0.06563657
31	0xbd30bba0	-0.043147683
32	0x3d112fc0	0.03544593
33	0x3d75b84a	0.059990205
34	0x3c1f74c9	0.009732434
35	0xbd2de9d1	-0.042459313
36	0xbb93a991	-0.004506298
37	0xbd37d8e2	-0.04488457
38	0x3d0a3268	0.033739477
39	0xbda054ab	-0.07828649
40	0xbaf6baa6	-0.0018823936
41	0xbd7a748f	-0.061146315
42	0x3d6ae6a0	0.057348847
43	0xbd7646cd	-0.060126115
44	0x3c05abe3	0.008158657
45	0xbcb7f067	-0.0224535
46	0xbbd9fce5	-0.006652462
47	0xbd42260a	-0.047399558
48	0xbd8bf569	-0.06833918
49	0x3da4d912	0.080492154
50	0x3da112f3	0.078649424
51	0xbd33d004	-0.04389955
52	0x3d04d444	0.032428995
53	0x3d93a9f0	0.072101474
54	0x3d2bd410	0.041950285
55	0x3ce03bb8	0.027372226
56	0xbb1f40bd	-0.0024300062
57	0x3ce3a740	0.027789712
58	0xbc57e90a	-0.013178119
59	0x3cec71eb	0.028862914
60	0xbc913425	-0.01772506
61	0x3b13747b	0.0022499848
62	0x3da02a17	0.07820528
63	0xbb60c959	-0.00342997
64	0x3ab611d4	0.0013890811
65	0xbd96d8f3	-0.073655985
66	0xbdbfe69c	-0.09370157
67	0x3d5f336e	0.054492407
68	0x3d2b45cf	0.04181462
69	0xbc06e828	-0.008234061
70	0xbc9c46cc	-0.019076727
71	0xbd7a1350	-0.061053574
72	0x3d2b79e6	0.0418643
73	0x3d274f76	0.040847264
74	0xbd3691ad	-0.04457252
75	0x3d44d94f	0.048058804
76	0xba5d5a40	-0.0008443929
77	0x390c1b66	0.00013361647
78	0xbd61e7c0	-0.055152655
79	0x3c621bcd	0.013800574
80	0xbdb2b1c9	-0.08725316
81	0xbd25abb9	-0.04044697
82	0x3dae322b	0.085056625
83	0x3d7597f3	0.059959363
84	0xbda8db26	-0.08244924
85	0xbd73cc61	-0.059521083
86	0xbdcba266	-0.099430844
87	0x3c550b81	0.013003231
88	0x3d858e10	0.06521237
89	0x3d971e22	0.07378794
90	0x3daeb0b4	0.08529797
91	0xbd28c962	-0.04120768
92	0x3cf838d1	0.03030053
93	0xbd9f950e	-0.07792102
94	0x3d345249	0.044023786
95	0xbc88f63c	-0.016718976
96	0x3ccd05ee	0.025027242
97	0xbccc9e21	-0.024977745
98	0xbd9ad8ce	-0.075608835
99	0xbd7a2da9	-0.0610787
100	0xbb553d79	-0.0032537861
101	0x3cfbbfc3	0.030731088
102	0xbc8e5bd8	-0.017377779
103	0x3dc821db	0.097720824
104	0xbb4632d6	-0.0030242703
105	0x3d95f658	0.07322377
106	0xbc5c5643	-0.013448301
107	0x3c39c342	0.011338057
108	0xbcd5f83e	-0.026119348
109	0x3dae41ff	0.085086815
110	0xbae234cf	-0.001725817
111	0x3d735f12	0.059416838
112	0xbcae1c67	-0.021253778
113	0x3d6447c2	0.055732496
114	0xbd367891	-0.044548575
115	0x3d4b54cd	0.04964142
116	0xbdb34c51	-0.087547906
117	0xbda42073	-0.08014002
118	0xbd0073f3	-0.031360578
119	0xbdace966	-0.08442955
120	0xbda8fca1	-0.0825131
121	0xbe24ff86	-0.161131
122	0xbcc4d797	-0.024028582
123	0x3df1c269	0.11804659
124	0xbd55a5fb	-0.052160244
125	0x3d52a3ac	0.05142562
126	0x3e22763a	0.15865412
127	0x3c4f82f3	0.012665498
128	0x3df7caa3	0.12099197
129	0xbd1bcdc6	-0.038038038
130	0x3cbd5bb8	0.023115024
131	0x3a8e79c8	0.0010870034
132	0xbdfb0028	-0.12255889
133	0xbdb107f2	-0.086440936
134	0x3d042414	0.03226097
135	0x3dc0fb68	0.09422952
136	0x3c44483f	0.011980115
137	0x3c569652	0.013097363
138	0x3e60ac9c	0.21940845
139	0x3ddd76c7	0.108136706
140	0xbcad1761	-0.021129312
141	0x3e33b017	0.17547642
142	0x3d98d9f8	0.07463449
143	0x3df76724	0.120802194
144	0x3cb6e88f	0.02232769
145	0x3d9df3c8	0.07712513
146	0x3c85040d	0.016237283
147	0xbca9f28c	-0.020745538
148	0x3de43d50	0.11144507
149	0xbdb4b5f4	-0.08823767
150	0xbd122da9	-0.035688076
151	0xbdacca7a	-0.08437057
152	0x3c8f45a7	0.017489268
153	0xbd8fed27	-0.07027655
154	0x3e072119	0.1319622
155	0x3d994cf4	0.07485381
156	0xbc85f4ef	-0.016352145
157	0x3d346097	0.044037428
158	0xbac1e6d0	-0.0014793519
159	0xbd272a8f	-0.04081207
160	0xbde3ac5a	-0.11116858
161	0x3d1ab9e4	0.037774935
162	0xbd881b76	-0.06645863
163	0xbcd9cb6b	-0.026586255
164	0x3b60db23	0.0034310303
165	0xba8941c9	-0.0010471876
166	0x3d5a19b6	0.053247176
167	0xbe1b3dac	-0.15160245
168	0xbd21f0e9	-0.03953639
169	0xbe0c42ec	-0.13697404
170	0x3c8102e7	0.015748454
171	0xbd6a8666	-0.05725708
172	0xbd431d65	-0.047635455
173	0x3d899709	0.06718261
174	0x3d5e2de4	0.054242983
175	0x3d49410b	0.049134295
176	0x3d98078e	0.07423316
177	0xbe213450	-0.15742612
178	0x3deb6d16	0.11495416
179	0x3c9c891d	0.01910835
180	0x3d493af8	0.049128503
181	0x3e065439	0.13118066
182	0xbca10a3e	-0.019658204
183	0x3d4d7a2c	0.05016534
184	0xbdb3f09c	-0.08786127
185	0xbc881f19	-0.016616391
186	0x3beb0a4c	0.0071728583
187	0xbe1d18f0	-0.15341544
188	0xbc63b682	-0.013898494
189	0x3c24f343	0.010067764
190	0x3cc403e0	0.023927629
191	0x3d9b75f9	0.07590861
192	0x3d984be5	0.07436351
193	0x3cb4ed70	0.022085875
194	0xbe0ee04f	-0.13952754
195	0xbd1c59c8	-0.03817156
196	0x3db89f03	0.09014704
197	0xbd86f9f9	-0.06590647
198	0xbdb11228	-0.08646041
199	0xbdddffc9	-0.10839803
200	0x3e5b90bf	0.21441935
201	0xbd362dd0	-0.044477284
202	0x3ded94d8	0.11600655
203	0xbd3c7220	-0.046007276
204	0xbd8c38d0	-0.068467736
205	0x3dfacccb	0.122460924
206	0x3da0bb63	0.07848241
207	0x3c7d9899	0.015478277
208	0xbdb7af3b	-0.089689694
209	0x3d474c01	0.048656467
210	0x3cd4c028	0.025970533
211	0xbb8e373b	-0.00434008
212	0xbd9b41ca	-0.07580908
213	0xbd808b00	-0.06276512
214	0x3dd89a0b	0.10576256
215	0x3bf3d193	0.0074407547
216	0x3d2b26fc	0.041785225
217	0xbb676b97	-0.0035311931
218	0xbdf1f95b	-0.11815139
219	0x3cddfde0	0.027098596
220	0xbcbc7015	-0.023002664
221	0xbdc73b1e	-0.097280726
222	0x3cecdafa	0.02891301
223	0x3e14fe0f	0.1455004
224	0x3b873432	0.004126095
225	0x3d20ec43	0.039287817
226	0xbc890bbd	-0.01672923
227	0x3d2fd0f9	0.0429239
228	0xbc902d13	-0.017599618
229	0xbc370dc8	-0.011172719
230	0xbe20441a	-0.15650979
231	0xbcb6c94f	-0.022312788
232	0xbd592ff2	-0.05302424
233	0xbd6acac5	-0.057322282
234	0x3e114814	0.14187652
235	0x3b831a93	0.0040009706
236	0x3be76d35	0.007062579
237	0x3ce4298a	0.027851839
238	0xbdf3e9b6	-0.11909811
239	0xbd98492d	-0.07435832
240	0xbd738800	-0.05945587
241	0x3d06f266	0.032946013
242	0x3d16458c	0.03668742
243	0x3c7c61c4	0.0154041685
244	0x3cb6a544	0.022295602
245	0xbdb563c7	-0.08856922
246	0x3d954675	0.07288829
247	0xbdc993e9	-0.09842665
248	0xbcba2af2	-0.022725556
249	0xbdbe6bc5	-0.09297899
250	0xbd617817	-0.055046167
251	0x3c80e8d1	0.015736016
252	0xbce094ff	-0.027414797
253	0x3d88138f	0.066443555
254	0x3c936e8f	0.017997054
255	0xbd8b6063	-0.06805494

bias f4 [84]
0	0xbc3b5b4a	-0.011435339
1	0xbdda227f	-0.10651111
2	0x3d2605dc	0.04053293
3	0x3e6b9161	0.23004676
4	0x3e0daa99	0.13834609
5	0x3d35ab52	0.044352837
6	0x3db86d01	0.09005166
7	0x3de475fc	0.11155316
8	0xbc5dae35	-0.013530304
9	0x3d55a7ab	0.052161854
10	0xbdcf5a29	-0.101246186
11	0xbd49ae14	-0.04923828
12	0x3c0ab267	0.008465386
13	0x3e0842b2	0.13306692
14	0xbb16274a	-0.0022911602
15	0x3e1820fb	0.14856331
16	0x3d45df29	0.048308525
17	0xbca89164	-0.02057714
18	0x3dd29316	0.10281961
19	0x3e1ffe54	0.15624362
20	0xbce8cce0	-0.028418005
21	0xbd072736	-0.03299638
22	0x3ccf8b35	0.025334934
23	0xbaaf2ccd	-0.0013364792
24	0x3d161d2f	0.036648925
25	0x3d85c2bb	0.065312825
26	0x3cade764	0.0212285
27	0xbc88891f	-0.016666947
28	0xbd71d3b3	-0.059039783
29	0x3dbd2d42	0.09237148
30	0xbe268272	-0.16260698
31	0x3d147c84	0.03625156
32	0x3e032972	0.12808779
33	0xbd5894df	-0.05287635
34	0x3e1a9d99	0.15099181
35	0xbc8a4d36	-0.01688252
36	0x3d861037	0.065460615
37	0x3dc127f2	0.09431447
38	0xbe0e2b38	-0.13883674
39	0xbd84b328	-0.06479484
40	0xbc10dc81	-0.008841635
41	0x3e41a315	0.18909867
42	0xbddb662f	-0.10712849
43	0xb9f9a570	-0.00047616241
44	0x3db8b049	0.09017999
45	0x3c9c62b3	0.019090032
46	0xbc7535d0	-0.014966443
47	0xbd4b737a	-0.049670674
48	0x3e5d4560	0.21608496
49	0xbc0c5ea2	-0.008567484
50	0xbdc32e68	-0.09530336
51	0xbe26d58b	-0.16292398
52	0x3c678b46	0.0141323265
53	0x3d50c148	0.050965577
54	0xbdecd5ee	-0.11564241
55	0x3db3d55a	0.08780928
56	0x3e3d00ee	0.18457386
57	0x3ea62129	0.32447174
58	0xbb82d077	-0.003992136
59	0x3cfd66f5	0.030932883
60	0xbd041fa4	-0.032256737
61	0x3e3b72bc	0.18305486
62	0xbd28ec96	-0.04124125
63	0xbd708b85	-0.058726806
64	0xbe39b3e1	-0.18135025
65	0xbd65bd89	-0.056088958
66	0x3ca23fc6	0.0198058
67	0xbc92e27d	-0.017930264
68	0x3e324d66	0.17412338
69	0x3e389e2d	0.1802909
70	0x3cae7177	0.021294339
71	0x3dd91794	0.106002
72	0xbe0d450c	-0.1379587
73	0x3d90c6ec	0.07069191
74	0x3c1e4801	0.009660722
75	0x3cce60a0	0.025192559
76	0x3d7c67b7	0.061622348
77	0xbda3662a	-0.079784706
78	0xbe296a03	-0.16544347
79	0x3deade94	0.11468235
80	0xbdaf1a07	-0.08549886
81	0x3d541da9	0.0517861
82	0x3e4054bc	0.18782324
83	0xbca07ff7	-0.019592268

weight f4 [10, 84]
0	0x3d34a69a	0.044104196
1	0x3e0497bc	0.12948507
2	0x3da9a5ad	0.08283553
3	0x3ec1059e	0.37699598
4	0xbe0dbfb1	-0.13842656
5	0x3e4af0ee	0.1981847
6	0xbe910ea9	-0.28331497
7	0x3c6c2963	0.014414164
8	0xbdbac150	-0.09118903
9	0xbe857d26	-0.26072043
10	0x3e35e053	0.17761354
11	0xbbbc93ad	-0.005754909
12	0xbd60476c	-0.054755613
13	0xbd8e38c7	-0.06944423
14	0x3c280845	0.010255878
15	0x3db2cdfa	0.08730693
16	0xbde22c09	-0.11043555
17	0x3dd440ad	0.103638984
18	0xbe26fa5d	-0.16306444
19	0xbdc5d850	-0.09660399
20	0x3df90662	0.121594205
21	0xbdb3d360	-0.08780551
22	0x3dbfb57e	0.09360789
23	0xbcb60ba9	-0.022222357
24	0xbe0b4f4c	-0.13604468
25	0xbe0332f9	-0.12812413
26	0xbd15790d	-0.036492396
27	0x3e4f8dcb	0.20268933
28	0x3e1e5c3a	0.15464869
29	0x3e15d8fa	0.14633551
30	0x3e3d6668	0.18496096
31	0xbe152c3f	-0.1456766
32	0x3e777ada	0.24167958
33	0xbdb1068e	-0.08643828
34	0xbdf1ab9c	-0.1180031
35	0x3d87e173	0.06634798
36	0x3dd325f5	0.10309974
37	0x3d3afe42	0.045652635
38	0xbcd15f18	-0.02555804
39	0xbe3de22d	-0.1854331
40	0xbd153bc8	-0.036433965
41	0x3e4e696d	0.20157404
42	0xbd3ba4ba	-0.045811392
43	0xbda47a06	-0.080310866
44	0xbe46b21e	-0.19403884
45	0xbbe578f6	-0.007002945
46	0x3e7e1e2c	0.24816197
47	0xbd55b800	-0.05217743
48	0xbe3b5d29	-0.18297257
49	0xbc6d4eb2	-0.014484094
50	0xbd8c1839	-0.068405576
51	0x3e2fa7cb	0.17153852
52	0x3da57aee	0.080800876
53	0x3c07d565	0.008290623
54	0xbe4c9a25	-0.19980676
55	0xbc92ea45	-0.017933974
56	0xbe36dfe0	-0.17858839
57	0xbe3c4678	-0.18386257
58	0x3aaae4ba	0.0013038137
59	0xbcebba47	-0.028775347
60	0xbdd371eb	-0.103244625
61	0x3d801f56	0.06255977
62	0xbe40e55e	-0.18837497
63	0x3beaad3a	0.0071617635
64	0xbd4b5aea	-0.04964725
65	0x3d33b4ad	0.043873478
66	0xbd6010a3	-0.054703366
67	0x3e4ab749	0.1979648
68	0x3dda0514	0.106455
69	0x3df67b3c	0.12035224
70	0xbdb67ea9	-0.08910877
71	0x3e31f93e	0.17380235
72	0xbdfe9ced	-0.12432275
73	0x3db7a4db	0.089669906
74	0xbd3026ed	-0.043005873
75	0x3cff59a1	0.031170668
76	0x3ea5d0a1	0.32385734
77	0x3dff7cf5	0.124750055
78	0x3ddcef8b	0.10787877
79	0xbe6d7e0b	-0.23192613
80	0x3d75c43e	0.060001604
81	0x3d7a3fa4	0.06109585
82	0x3df067c5	0.117385425
83	0x3d9ed147	0.0775476
84	0xbd1a4e8b	-0.03767256
85	0x3df54d93	0.11977687
86	0x3de58d28	0.11208564
87	0xbdea4d9d	-0.11440585
88	0xbe9468aa	-0.28986102
89	0xbe7b7a8e	-0.2455847
90	0x3d323350	0.043505967
91	0xbdd96d01	-0.10616494
92	0x3e0b0914	0.13577682
93	0x3d8ea915	0.069658436
94	0x3e48d360	0.19611883
95	0x3cd51084	0.026008852
96	0x3de7032b	0.11279901
97	0xbe38d901	-0.1805153
98	0x3e3afefc	0.18261331
99	0xbe854063	-0.26025686
100	0xbe6df49f	-0.23237847
101	0xba079bdc	-0.0005173066
102	0x3e377e63	0.17919306
103	0xbde8fa08	-0.11375815
104	0x3e0111dd	0.1260447
105	0xbc500d06	-0.0126984175
106	0xbc933fe3	-0.0179748
107	0x3db5e402	0.0888138
108	0x3d6b63a4	0.05746807
109	0xbd331f21	-0.04373086
110	0x3dccda9e	0.100026354
111	0x3d8c2b3f	0.06844186
112	0x3d6f6cd9	0.058453415
113	0xbcdf1423	-0.027231282
114	0xbe8f99de	-0.2804708
115	0x3d674980	0.05646658
116	0x3c889ee1	0.016677322
117	0x3ca955d7	0.020670814
118	0xbe32855f	-0.1743369
119	0x3e13c2a2	0.14429715
120	0xbd868556	-0.065684006
121	0x3e95e372	0.2927509
122	0x3e894244	0.2680837
123	0xbd47c943	-0.048775923
124	0x3e654268	0.22388613
125	0x3e548235	0.20752795
126	0xbe4233e9	-0.18965115
127	0x3d8b6232	0.06805839
128	0xbe09ad7e	-0.13445088
129	0x3cca82df	0.024720607
130	0x3d89dfe4	0.06732157
131	0xbd491c39	-0.04909918
132	0xbe85c19e	-0.2612428
133	0xbd57ec6e	-0.05271571
134	0xbdb85271	-0.090000995
135	0xbe4085c1	-0.18801023
136	0x3de3b948	0.11119324
137	0xbe220ab4	-0.15824395
138	0xbd480298	-0.0488306
139	0xbc92ad25	-0.017904827
140	0xbdcabb6c	-0.09899029
141	0xbe92fba8	-0.28707623
142	0xbdc91b12	-0.098196164
143	0xbe0e595c	-0.13901275
144	0xbd87c641	-0.06629611
145	0xbe09f045	-0.13470562
146	0x3df3b391	0.11899484
147	0x3e70059f	0.23439644
148	0x3e9fde39	0.3122423
149	0x3d240f8c	0.04005389
150	0xbce1438c	-0.02749803
151	0x3d0f9a7e	0.035059445
152	0xbe325c06	-0.17417917
153	0xbe346512	-0.1761668
154	0xbe32f169	-0.17474903
155	0xbd6ed131	-0.05830497
156	0x3e41b9f7	0.18918596
157	0xbe7ec7ff	-0.2488098
158	0x3de2c0dc	0.11071941
159	0x3b0def67	0.0021657587
160	0xbd370f4d	-0.044692326
161	0x3e1bcdeb	0.1521527
162	0xbdca005c	-0.0986335
163	0x3dd504ec	0.104013294
164	0xbd284691	-0.041082922
165	0x3d825a01	0.06364823
166	0xbe70471e	-0.23464629
167	0x3e915a91	0.2838941
168	0xbddd8ccc	-0.108178705
169	0xbddb9022	-0.107208505
170	0xbd858ef3	-0.06521406
171	0xbdca74af	-0.09885537
172	0x3d9ea61a	0.07746525
173	0x3e0a0d31	0.13481595
174	0x3dfc1f9e	0.12310718
175	0x3e35b7a9	0.17745842
176	0x3ea93282	0.33046347
177	0x3d11d8b1	0.035607044
178	0x3d2aa418	0.0416604
179	0xbe7776bd	-0.24166389
180	0x3d67ad3a	0.056561686
181	0x3e1ec869	0.15506138
182	0xbc38a8f0	-0.011270747
183	0x3e8f9d6c	0.2804979
184	0x3e6fff71	0.23437287
185	0xbcee29b3	-0.029072618
186	0xbece0a1d	-0.4024209
187	0x3e66bb69	0.22532429
188	0xbe089419	-0.13337745
189	0xbc3819fb	-0.011236663
190	0x3d620dcd	0.055188943
191	0xbcf94f31	-0.03043327
192	0xbe1027d0	-0.14077687
193	0xbd410781	-0.047126297
194	0xbe150375	-0.145521
195	0x3dffb0a3	0.12484863
196	0xbde0410e	-0.10949908
197	0xbc9f747e	-0.019464727
198	0x3d73c94d	0.059518147
199	0xbdb60615	-0.08887879
200	0x3e2819b9	0.16416062
201	0xbd4ee758	-0.050513595
202	0x3dffa745	0.12483076
203	0xbc2a0146	-0.01037628
204	0x3c92c1d8	0.017914698
205	0x3d7c255b	0.061559062
206	0x3dcfb94c	0.101427644
207	0xbdce9730	-0.100874305
208	0x3cbf5c43	0.023359424
209	0x3d9eaf99	0.07748336
210	0xbdac24ed	-0.084054805
211	0xbdc6c010	-0.09704602
212	0xbc3a615b	-0.01137575
213	0x3dbfb59b	0.0936081
214	0xbd628685	-0.05530407
215	0xbdd4bad8	-0.103872
216	0xbcdd73a4	-0.02703268
217	0xbd9c8cbf	-0.07644033
218	0xbd993453	-0.07480683
219	0x3db9c5ab	0.09070905
220	0xbe1c217d	-0.1524715
221	0x3d3fd9e1	0.046838645
222	0xbddb0d75	-0.10695926
223	0x3dba25bf	0.09089231
224	0x3d812f10	0.063078046
225	0x3df5c9a7	0.12001353
226	0xbdf17b54	-0.11791101
227	0xbdc651e1	-0.09683586
228	0xbd166612	-0.036718436
229	0xbd45ac33	-0.048259925
230	0x3d31cc65	0.043407816
231	0xbe6283ef	-0.22120641
232	0xbdff3371	-0.124609835
233	0xbd033a8e	-0.032038264
234	0xbd283721	-0.0410682
235	0xbc877ae6	-0.016538095
236	0x3d3278c0	0.043572187
237	0xbde1a943	-0.11018612
238	0x3d1700a9	0.036865864
239	0xbe215286	-0.15754136
240	0xbd8bd6d5	-0.06828085
241	0x3e9de7c0	0.30840874
242	0xbdc5fc64	-0.0966728
243	0xbdaa5b9a	-0.08318253
244	0x3e4c3917	0.19943653
245	0x3e6f180c	0.23349017
246	0x3e378510	0.17921853
247	0x3eeb8390	0.45998812
248	0x3dfded2c	0.123987526
249	0xbd5ca81f	-0.05387127
250	0x3d84b0b3	0.06479015
251	0xbe8ba8eb	-0.27277312
252	0xbdada1e8	-0.08478147
253	0xbe1d6371	-0.15369965
254	0xbd81f637	-0.0634579
255	0xbe75c3d9	-0.24000491

bias f4 [10]
0	0xbb85ccf7	-0.0040832716
1	0xbe8afe78	-0.2714727
2	0x3d9c19e1	0.076221235
3	0xbd1ee7ce	-0.038795285
4	0x3f17e495	0.59333163
5	0xbe56537d	-0.20930286
6	0xbd9a3901	-0.07530404
7	0xbe3a10cd	-0.18170471
8	0x3f08e4ab	0.5347392
9	0xbe072a89	-0.1319982
