storage/main_model.pt (torch_old, 264288 bytes, 10 tensors)

weight f4 [6, 3, 5, 5]
000000 da f9 41 be 66 50 c9 bd 92 5c 8c 3d a8 8b a8 3d
       -0.18942967 -0.09829788 0.06853594 0.08229762
000010 59 88 21 3e d2 f8 1c bd e8 9b 14 3e 64 c8 f6 3e
       0.15774669 -0.03832323 0.14512599 0.4819976
000020 81 0a ca 3e 01 19 a3 3e 15 bf dd 3d 82 d4 aa 3e
       0.3946114 0.31855014 0.10827462 0.33365256
000030 17 85 0b 3f f7 6c cf 3e 0a 64 3d 3e 26 70 08 bd
       0.54499954 0.4051282 0.18495193 -0.033310078
000040 08 b0 3b 3e b2 eb 72 3e d9 05 a7 3d 93 68 19 bd
       0.1832887 0.23722723 0.08155412 -0.037453245
000050 4e a6 32 bc 72 f7 f9 bd c2 6a d2 be 18 f3 fa be
       -0.010903908 -0.122053996 -0.41097075 -0.4901359
000060 3f fd b7 be 13 1d 14 be 40 57 09 be 98 1e b7 3d
       -0.359354 -0.14464216 -0.1341219 0.08941382
000070 59 34 a2 bd f2 db 30 be e1 90 b5 bd fa 01 48 be
       -0.07920141 -0.17271402 -0.08865524 -0.19532004
000080 2b 8c 6f 3d e8 44 9c 3d 46 2f d2 3b f4 08 49 3d
       0.058483284 0.0763033 0.006414327 0.049080804
000090 00 17 15 bd 75 57 6a 3e ce cd 8f bd 12 f3 ee bd
       -0.036398888 0.22884925 -0.07021676 -0.11667456
0000a0 dc 66 e1 bd a1 db 9c be 8a 4a a9 bd 4a ba 92 be
       -0.11005947 -0.30636314 -0.0826617 -0.28657752
0000b0 03 0b cd be d9 bc 46 be 8d fa 9a be 76 98 d3 be
       -0.40047464 -0.19407977 -0.3026928 -0.41327256
0000c0 de d9 09 bf 18 73 ab be 6d 88 4b bd 9c 55 29 be
       -0.53848064 -0.33486247 -0.049690653 -0.16536564
0000d0 bb 66 28 bc 5e 60 e3 bd cf 70 6b 3d d6 4a 40 3d
       -0.010278399 -0.11102365 0.05748063 0.04694637
0000e0 36 8a a3 3c 22 e6 fa 3c b6 9d a0 bc b2 b7 91 3d
       0.019963365 0.030627314 -0.019606452 0.07115115
0000f0 95 76 6d 3e df 6a 09 3e 6a ac 51 3e 9f 68 85 bb
       0.23189767 0.13419674 0.20475927 -0.0040713097
000100 c0 0d c0 3c e7 9c a2 3d 13 f8 4b bd c0 b5 22 3e
       0.023444057 0.07940083 -0.04979713 0.15889645
000110 4b 35 40 bd 63 e1 0b 3e 58 90 84 3e 85 e3 d6 bd
       -0.046925824 0.13660197 0.25891376 -0.10492615
000120 3e 9b 0a bd 87 aa 98 3c a1 55 95 3e 30 3d 34 3c
       -0.033839457 0.018636001 0.29166892 0.011000916
000130 a7 51 5f bd 6c 31 2f bd 44 3c 24 be c0 2f c6 bd
       -0.05452123 -0.04277174 -0.16038615 -0.09677076
000140 87 1c 89 bd b1 9d dc 3d c2 3a 76 3d e2 97 d7 bd
       -0.06694894 0.10772265 0.06011463 -0.10527016
000150 91 6e 50 bc ea 6e 86 bd 24 02 8f 3d 41 a1 b3 bb
       -0.012721674 -0.06564124 0.0698283 -0.0054818694
000160 98 e6 92 3c 17 1c da bd 9e 2c dd bd 52 f1 d2 bd
       0.017932221 -0.10649889 -0.10799526 -0.102999344
000170 9f a3 2b bd 40 ff 22 3d 13 3a 1b be 19 58 84 bc
       -0.041904088 0.039794207 -0.15158872 -0.01615529
000180 c2 8d d8 bd 08 4c ea bd 80 b5 15 bc 97 45 94 3d
       -0.10573913 -0.11440283 -0.009137511 0.07239836
000190 9f 2c 97 bd 23 70 30 3d b6 7c 16 bd 35 bf 4d be
       -0.07381558 0.043075692 -0.036740027 -0.20092471
0001a0 b5 b6 8a bd 41 e7 86 3d 1b 44 72 bd 6f 5e 05 be
       -0.0677313 0.06587077 -0.05914698 -0.13024305
0001b0 df 2f ee bd c0 32 06 be c4 02 b9 3d 20 a6 6e bd
       -0.116302244 -0.13105297 0.090337306 -0.058263898
0001c0 1b 38 68 bc 66 bc 35 3d 41 5f 42 be 0e 87 ce 3b
       -0.014173533 0.044369124 -0.18981649 0.006302721
0001d0 77 95 04 3e d4 87 bd 3d 62 1c 95 bd 5e 9d 8b bc
       0.12947641 0.09254423 -0.07280804 -0.017042812
0001e0 c0 45 b3 bc 53 98 b6 3d bb 5c 7d bd c5 d3 62 3c
       -0.021883845 0.08915772 -0.061856013 0.013844435
0001f0 67 23 4c bd 61 e3 63 3e 09 f4 10 3e 8a 6c a1 3d
       -0.04983845 0.22254707 0.14155592 0.0788203
000200 a8 46 c6 3c ff 16 20 be 1a 4f 14 3e cd 5e 96 3e
       0.024203613 -0.15633772 0.144833 0.29369202
000210 f5 56 10 3e 18 69 e9 3d 9c cd 22 be 36 9c f6 3d
       0.14095671 0.11396998 -0.15898746 0.120415136
000220 13 f9 a0 3e 6b 0c 82 3e 4f 51 dd 3c aa 35 46 bd
       0.3144003 0.254001 0.02701631 -0.04839102
000230 9a 59 36 3e 6e c9 92 3e 24 1c 33 3e b7 0e b1 3d
       0.17807618 0.28669304 0.17491204 0.08645385
000240 5c 48 08 3e ca 46 09 3e 61 b9 e2 3d 6f cc 91 3e
       0.13308853 0.1340591 0.110705145 0.28476283
000250 09 5f 23 3e 8c 66 85 3b f0 e4 29 be 11 50 23 be
       0.15954222 0.0040710624 -0.16591239 -0.15948512
000260 48 f6 ab 3e 22 c2 8f bd 90 e2 84 bd af 67 c1 be
       0.33586335 -0.0701945 -0.06488526 -0.37774417
000270 4d 83 78 bd 65 25 02 3f 57 3a 32 3d 1c c2 f0 be
       -0.060672093 0.5083831 0.04351267 -0.47023094
000280 79 66 4f be 07 ca a0 bd 55 46 90 3e 79 c0 4f bb
       -0.20253934 -0.07851034 0.2817866 -0.0031700416
000290 8f c6 a7 be 5a 64 36 3e 73 25 29 be 5c 8f 85 bd
       -0.32768676 0.17811719 -0.16518192 -0.06521484
0002a0 6d ab a7 3d 21 54 2f bd 62 c7 4a 3e 28 0d ea bd
       0.08186994 -0.04280484 0.19802621 -0.114282906
0002b0 d1 20 87 be 18 03 bb 3d e2 8b 3b be 26 dc 28 be
       -0.26392224 0.091314495 -0.1831508 -0.1649023
0002c0 8c 4d 1e 3e d2 18 07 3f 35 fc 48 3e 9b ba 87 bd
       0.1545927 0.5277225 0.1962746 -0.06627389
0002d0 cc 6f 80 be 24 8a 10 3e 35 15 29 3f e5 d2 4e 3e
       -0.25085294 0.14115196 0.66047984 0.20197637
0002e0 d7 5a e6 be 72 52 03 be 50 cb 72 3e 3e 9b f7 3e
       -0.4499118 -0.12824419 0.2371037 0.48360628
0002f0 fc 17 27 3e 2c b7 83 be 47 7b 81 3e ab 96 4f 3e
       0.16317743 -0.25725687 0.25289366 0.20272319
000300 1a 2c 4c bc 9a 5e 91 3e 48 02 0b be 5c 69 b3 3e
       -0.0124616865 0.28392488 -0.13575089 0.3504132
000310 47 23 13 3e 7b 46 53 bd 0f 62 ab 3e 67 e3 b2 bc
       0.14368926 -0.051580887 0.3347325 -0.02183695
000320 11 b9 43 be e1 0e 53 be 73 34 99 3e 1b 15 c7 bd
       -0.19113566 -0.20611145 0.29922828 -0.097208224
000330 50 34 a5 be ba a4 b6 be 93 6b 06 be 0c 96 b2 3e
       -0.32266474 -0.3567255 -0.13126974 0.34880102
000340 c8 f4 9c 3d 35 27 0c bf 4e 27 ac be 42 e9 0a 3c
       0.07663876 -0.54747325 -0.33623737 0.008478465
000350 43 6c 44 3e 61 f8 29 bd 45 95 8a be 31 df d1 3c
       0.19181924 -0.04149664 -0.2706701 0.025619121
000360 e2 1c ce bd 1f c9 89 bd d1 c2 f2 3c c8 7d ab bd
       -0.10064103 -0.06727814 0.029633911 -0.083736
000370 b0 1c 06 bd 00 90 1e be 23 36 da bd 4a a8 c9 3d
       -0.032742202 -0.15484619 -0.10654857 0.09846552
000380 d6 c0 7c be 4c de 5b 3d 00 c7 91 3d 6a 91 27 3e
       -0.24682936 0.053678796 0.07118034 0.16364065
000390 7d 54 83 3e cf 0c 23 3e 16 b0 8c be cd 7f d0 be
       0.25650397 0.15922855 -0.27478093 -0.40722504
0003a0 84 36 b8 be 06 ab d7 be 6f f1 bd be f7 e8 4d be
       -0.35979092 -0.42122668 -0.37098262 -0.201084
0003b0 2b a7 86 be c4 ef f3 be 78 6b be be 0b 09 42 be
       -0.26299414 -0.47643864 -0.37191367 -0.18948762
0003c0 c9 4e be 3d da 97 93 3e 69 ee b8 3e 45 69 34 3e
       0.09292371 0.2882679 0.36119393 0.17618282
0003d0 27 7e 5e 3d b7 56 74 3e 79 53 87 3e 3e 0d 9f 3e
       0.054319527 0.23861204 0.26430872 0.3106479
0003e0 00 0c 8c 3e 4f 8a 35 3e 16 15 74 3e 93 d7 91 3e
       0.27352905 0.17728542 0.23836169 0.28484783
0003f0 0b 0b 98 3e e2 11 3c 3e f4 ad 9d 3d 3e 9e 25 bd
       0.29695925 0.18366197 0.076991946 -0.040434115

bias f4 [6]
000000 5f 64 08 bf 2d ff c4 3c b4 49 96 bc f2 dd a3 be
       -0.53278154 0.024047459 -0.018345691 -0.32005268
000010 32 08 a3 3e bf 22 01 3f
       0.3184219 0.50443643

weight f4 [16, 6, 5, 5]
000000 b4 ba 2b bd 45 42 14 bc 20 5a 58 3d f2 b0 9b bd
       -0.0419261 -0.009049003 0.052820325 -0.07602109
000010 c5 31 fa bc f1 46 65 3d 5f fb 53 bd 58 37 c3 bc
       -0.03054131 0.055975858 -0.051753398 -0.0238301
000020 a9 a8 9a 3d 5e 53 93 3d 39 ae 12 bd f0 32 dc bb
       0.075517006 0.071936354 -0.035810683 -0.0067199394
000030 94 8a f1 3b b7 04 26 bd 9c a0 35 3d ff 8e ea bb
       0.007371256 -0.04053184 0.044342622 -0.0071581597
000040 28 93 a7 bb bc 26 a1 bc 62 1a be b7 f5 b7 0d 3d
       -0.005113978 -0.01967179 -2.266205e-05 0.034599263
000050 17 28 26 be 92 1e e6 bd 7c e2 00 be 23 fd fa 3b
       -0.1622623 -0.112362996 -0.12586397 0.007659571
000060 e4 b5 d4 bd 62 b6 0d 3c 9c b1 86 3b 9b c9 52 3c
       -0.103862554 0.0086494405 0.004110528 0.012865449
000070 03 5b 2b bd 25 13 85 bc c2 f4 58 3d 30 c6 cc 3d
       -0.041834842 -0.01624448 0.052967794 0.09998739
000080 eb 4c 05 bd d4 e6 e6 3c 21 1e e4 3d 8f af f9 bc
       -0.032544058 0.02818624 0.11138559 -0.03047922
000090 05 24 ed 3d 8b b4 45 bd 1c f5 73 bc 24 63 da 3d
       0.11579136 -0.048267882 -0.014889982 0.10663441
0000a0 67 82 84 bd f6 b5 dc 3d 91 cc 7a 3c 19 dc bd 3c
       -0.06470185 0.10776894 0.0153075615 0.02317624
0000b0 15 ea 51 bb 21 d3 17 3d 8a 8f 00 3e 59 8b 4e 3c
       -0.0032030393 0.037066583 0.12554756 0.012606465
0000c0 2d 09 1c 3d c4 60 76 3d 26 fa e4 bd e9 63 14 bd
       0.03809469 0.060150877 -0.111805245 -0.036228094
0000d0 1b 60 15 be 01 fc bc bc 1a 7d cb bd 14 0b 13 3c
       -0.14587443 -0.023069384 -0.099359706 0.008974809
0000e0 22 03 4f 3e 53 d0 73 bd 03 46 11 3e 6e 97 6e bd
       0.20216039 -0.059524845 0.14186864 -0.058249883
0000f0 42 2f 9c bd b5 48 17 3e c6 f4 10 be 7e 15 65 3e
       -0.07626201 0.1477383 -0.14155874 0.2237148
000100 67 5c 09 b9 3e 9a 40 bd 12 af 59 3e 99 e0 c0 bd
       -0.0001309976 -0.047022097 0.2125819 -0.094178386
000110 c2 b6 2a 3e 5f ed 6e bd 82 37 c0 3c 67 be 00 3e
       0.16671279 -0.058331843 0.023463968 0.12572633
000120 62 0a d8 bd e4 5b 41 3e fc bf 85 3c ef 84 0d 3d
       -0.10548855 0.1888271 0.016326897 0.034550603
000130 9e fd d3 3d d8 f2 3e 3d 47 6b 84 3d 4f ff 9d 3c
       0.10351108 0.046618313 0.06465774 0.01928678
000140 b9 4d c0 bc 2a aa 31 bd 5f 35 22 be c3 e2 06 ba
       -0.023474561 -0.04337517 -0.15840672 -0.00051454845
000150 30 7b 21 3c 75 13 36 3d d8 85 89 bc c8 ab 2f bd
       0.00985603 0.04445215 -0.016787454 -0.042888433
000160 a9 f1 cf bc 22 2e 79 bd fe 4c a4 bc 46 1c 21 bd
       -0.025383787 -0.06083501 -0.020056244 -0.039333604
000170 47 b4 aa 3c 66 13 63 bd c7 c9 6c 3d 0c 6f aa 3b
       0.020837916 -0.05543842 0.057809617 0.005201226
000180 c0 30 8b bd 8a 0e cd bb 9c d7 54 3c 5c ad 91 bc
       -0.06796408 -0.0062578367 0.012990858 -0.01778286
000190 7c b7 e8 bd 51 4f d1 3c b1 55 6d bd fb 88 89 bd
       -0.11363122 0.025550516 -0.05794305 -0.0671558
0001a0 2f 06 1d bd 4c aa b4 3c b8 ff 92 bd e8 13 b5 bd
       -0.038335975 0.02205386 -0.07177681 -0.088416874
0001b0 3b 24 73 3c 6a c4 b3 bd f0 4a 9b 3c e0 6b 61 3d
       0.014840181 -0.087776974 0.018956631 0.05503452
0001c0 b2 71 07 bd 09 4d e2 3c ac f6 8a bc 90 14 b6 bd
       -0.033067413 0.027624624 -0.016963325 -0.08890641
0001d0 13 2e 05 3d e2 9c f4 bc 98 ad 90 3d f3 44 3e bd
       0.032514643 -0.029859964 0.070643604 -0.046452474
0001e0 1c e2 b3 bd f3 a8 13 3d 23 4c f9 bd 93 d5 0b bd
       -0.08783361 0.036049794 -0.12172725 -0.034139227
0001f0 ff 8d 76 bd 17 14 a4 bd c5 66 3e 3d 02 22 ae bd
       -0.06019401 -0.08011644 0.046484727 -0.0850258
000200 c5 66 8c 3d 4e 13 ab 3d 12 23 08 3d c7 27 01 bd
       0.06855539 0.083532915 0.03323657 -0.031532075
000210 cb f4 c9 3d ce b3 9c bc bc 3b be 3c f9 09 26 bd
       0.09861144 -0.019128706 0.023221843 -0.040536854
000220 7a 24 a2 3c 26 5e 4c 3d 71 20 40 3c 91 8e ed ba
       0.019792784 0.049894474 0.011726485 -0.0018124153
000230 7f bd 84 bd 5b 55 98 ba 5d c4 87 3c a5 fb d2 3d
       -0.06481456 -0.0011622118 0.016573125 0.10301904
000240 69 a9 8b bc 91 83 cc bc 5c 06 fe bb 88 ca ff bc
       -0.017048554 -0.02496508 -0.007752223 -0.031224504
000250 48 80 5a 3d 2a 62 77 3d 70 63 2c bd 57 0f 5c 3c
       0.053344995 0.06039635 -0.04208702 0.013431392
000260 7d b0 c2 bd f7 27 2a 3c c0 83 25 3c aa 36 71 3d
       -0.09506319 0.010385505 0.010102212 0.058890022
000270 dd 0a ec bb 8f 36 51 3c c9 ee b8 3d fa 94 14 3e
       -0.0072034434 0.012769355 0.0902992 0.14509955
000280 02 0d 9e 3d e9 1e b8 3d b6 32 c7 3d 33 ab b0 3d
       0.07717325 0.08990271 0.09726469 0.08626404
000290 cd 6d 0c 3e ea 9f f0 3d 66 ee d7 3d 2b 68 1c 3c
       0.1371376 0.11749251 0.10543518 0.00954632
0002a0 63 2e 08 3e 76 15 46 3d 6e dd 1a 3d 00 7a 99 3c
       0.13298945 0.04836031 0.037808828 0.018734932
0002b0 61 11 89 3d 44 b6 0e 3d 96 da df 3c 9c ed 84 bc
       0.06692768 0.03484179 0.02732591 -0.016226582
0002c0 11 df 62 bd 31 d3 72 bd ee 2d 5b bd b5 a7 d5 3d
       -0.055388514 -0.05928344 -0.0535106 0.10432378
0002d0 03 ce 29 3d 5b 74 b0 bd 33 9d fa bc d9 e5 f9 3c
       0.041456234 -0.08615943 -0.030592537 0.030505108
0002e0 61 0d 2f bd d7 b6 25 bd d1 c8 a5 ba cc 5d a5 3a
       -0.04273737 -0.040457573 -0.0012648349 0.0012616455
0002f0 57 2d b8 bd 8a d4 43 3d bf 66 0e bd 60 49 33 ba
       -0.08993023 0.047810115 -0.034765955 -0.0006839242
000300 fd a7 e6 bd fd 2f 01 3c 5d 31 18 bd 83 44 34 bc
       -0.1126251 0.007884976 -0.03715645 -0.011002663
000310 70 52 14 3d d2 7e 93 bd b4 cc 2e 3d 6d 23 ad bd
       0.03621143 -0.072019234 0.04267569 -0.084540226
000320 1b 26 d3 bd 42 05 57 3c 10 20 c3 bc ea 09 ac bd
       -0.103100024 0.013123812 -0.023819 -0.084003285
000330 4e 0c 81 bd ff b9 57 be e0 12 73 be 3c b3 3c be
       -0.06301175 -0.21067046 -0.23737669 -0.18427747
000340 ed c7 af bd 20 46 fd bd 8b 9e 80 be db ee 8c be
       -0.08583055 -0.12366891 -0.2512096 -0.27525982
000350 57 93 96 be 9a 45 80 be d5 4b 0f be 12 fc 3f be
       -0.29409286 -0.25053102 -0.13993771 -0.18748501
000360 95 86 79 be 3b e0 76 be e7 bb 18 be 4e e6 bd bd
       -0.24367745 -0.24108975 -0.14915429 -0.09272443
000370 f6 79 83 bd df 03 90 bb c8 89 ef 3c cf 5e 89 bd
       -0.064197466 -0.0043949927 0.029240504 -0.067075364
000380 31 34 1f 3c a3 b2 e0 3d cd e3 07 3e 05 fa d0 3d
       0.009717033 0.10971572 0.13270493 0.102039374
000390 95 84 19 3d 2d 34 92 3d 35 64 e8 3d 8f 36 9f 3d
       0.037479956 0.07138858 0.11347238 0.07774078
0003a0 8f 96 04 3e 44 51 c2 3d 60 bf c1 3d 8b 17 55 3b
       0.12948059 0.094881564 0.0946033 0.0032515253
0003b0 a5 cb f5 3c 86 e4 e4 3c 34 f0 96 bd e6 50 34 3d
       0.030004332 0.027941 -0.07370034 0.044022463
0003c0 79 84 68 bd 50 e1 00 be 56 c4 a4 bd 78 07 e4 bd
       -0.05676696 -0.1258595 -0.080452606 -0.11134237
0003d0 aa e9 02 bd 2a b1 95 3c a7 ea eb 3b 01 26 71 bd
       -0.03196112 0.018272955 0.0071996036 -0.058874134
0003e0 29 b3 c9 bc aa 0a 09 3c fd 25 07 bb 01 a7 79 bd
       -0.024621563 0.008364359 -0.0020622008 -0.060950283
0003f0 95 08 94 3c 41 0e 55 3d c6 e1 a0 3d 7c 9d 95 3d
       0.018070498 0.052015547 0.07855563 0.073054284

bias f4 [16]
000000 9e 62 24 be c0 9f f8 bd c9 ba b1 3e 23 6d f1 3b
       -0.16053244 -0.12139845 0.34712818 0.0073677464
000010 9e 9b d1 3d 19 dd 00 bf 42 89 56 be 88 8c 37 3e
       0.1023476 -0.5033737 -0.20950797 0.17924702
000020 34 14 ee be c7 ef 87 3e 6e de b6 be 6d e6 3a 3f
       -0.4649979 0.26550123 -0.35716575 0.7300785
000030 68 f9 c7 3c 6b 89 9d bd 99 9e 28 be 19 cf 58 3f
       0.024410918 -0.07692226 -0.1646675 0.84691006

weight f4 [120, 400]
000000 83 36 e1 bc d5 a6 de 3c a5 d4 24 ba 65 a6 e9 3c
       -0.027491814 0.027179161 -0.000628779 0.028521726
000010 a0 e0 7a bc 44 25 b5 bb c6 e0 c7 bc e0 8f b1 3d
       -0.015312344 -0.005528124 -0.024399173 0.0867002
000020 96 0a be bc 66 d3 05 bb bd c8 8f 3c b3 77 07 bb
       -0.023198407 -0.0020420193 0.017551774 -0.0020670712
000030 74 fd 71 3d 0f ec e4 bc 3f c9 ec ba 01 d3 fd bc
       0.059079602 -0.027944593 -0.0018065347 -0.030984404
000040 64 7a b8 bc 82 73 9c bb 23 61 eb bb b7 35 2b 3b
       -0.022519298 -0.004774512 -0.0071832105 0.0026124546
000050 16 5a 70 bd 16 58 7d bd ec b6 5a 3c 0d 2f 66 bd
       -0.058679663 -0.061851583 0.013349276 -0.056197215
000060 32 6d 82 3c 0a ac 05 3d 92 a0 c0 bc 88 a7 8c 3c
       0.015921209 0.032634772 -0.023514066 0.017169729
000070 9f 2a 8e bb ec bb 84 bc d2 05 52 3c 0e d3 28 3c
       -0.004338577 -0.01620289 0.0128187705 0.010304226
000080 06 9e 24 bc 07 23 a7 bd b0 40 6d bd 19 d0 61 3c
       -0.010047441 -0.08160978 -0.05792302 0.0137825245
000090 f0 34 94 bc b0 82 84 bd e2 95 c4 bc a3 0a 33 3d
       -0.018091649 -0.06470239 -0.023997251 0.043711316
0000a0 3b 4d 03 3d 28 9b 2d bd bd 5f c4 3c 62 ab 47 3d
       0.032056075 -0.042384297 0.023971433 0.048747428
0000b0 8d a0 25 3d 2f 00 8f 3c a6 1a 9d 3d c8 b3 6f 3d
       0.040436316 0.017456142 0.076710984 0.058521062
0000c0 9c e1 68 bc af 8a 3a bd f1 68 42 3d c2 9b d7 bc
       -0.014213946 -0.045542415 0.04746336 -0.026319388
0000d0 69 04 ed bb e7 0d 3c 3c 00 97 a8 3d b9 9f 3e 3d
       -0.0072331917 0.011477924 0.08231926 0.046539042
0000e0 28 81 a4 bd 6e 8b a4 bd bc e0 2a bd 5c f3 16 3d
       -0.08032447 -0.080344066 -0.04171823 0.03685318
0000f0 96 98 35 bd 63 38 ba bb e6 22 ed bb 97 c4 44 bd
       -0.04433497 -0.0056829914 -0.0072368262 -0.048039045
000100 d3 1a 36 3d 89 fa 3a bd de 24 99 bd 98 a0 d5 bb
       0.044459175 -0.045649085 -0.07477735 -0.0065193884
000110 6c e3 1d bd ee 9e a6 3c e1 d5 46 3a a4 55 8e bd
       -0.038546965 0.020339455 0.0007584971 -0.069499284
000120 c1 55 9f 3c 82 c6 30 bc a2 b0 04 3d 19 df 00 3d
       0.01945007 -0.010789515 0.032395013 0.031462763
000130 99 da 9e 3d b5 e7 8c 3d cb 22 a3 3c 77 51 29 3c
       0.07756538 0.06880132 0.019914052 0.010334364
000140 92 bf 51 bd ea 7d cb bc 8b 39 47 3c 05 9c c2 bc
       -0.051208086 -0.024840314 0.012159715 -0.023756037
000150 c9 ae 31 bc 4c d1 ab bd 11 3d 42 3d bb 69 45 3d
       -0.010844895 -0.083895296 0.04742152 0.048196536
000160 63 6c a1 3d f9 1f 5e 3c 8e c9 a0 3a d8 1f b8 3c
       0.07882001 0.013557428 0.0012267099 0.022476122
000170 60 41 ac 3c 79 0e 8b 3d 6e 3c 6d 3c 4d 12 8d bd
       0.021027267 0.0678987 0.01447974 -0.06888256
000180 10 22 0a 3c f3 ac 3f 3d 89 12 b1 3c 5c c5 fc 3c
       0.008430973 0.046795797 0.021615284 0.030855827
000190 93 da 38 bd 08 d2 5e 3d 57 2d c8 bc 76 25 bf bc
       -0.045130324 0.05439952 -0.024435682 -0.023333292
0001a0 45 e4 ab bd 28 8f 23 3b 78 13 a1 3a 56 26 99 bc
       -0.08393148 0.0024957154 0.0012289127 -0.018695038
0001b0 7a ef db bc 87 d7 89 bd 23 80 50 3d a3 ee 78 bc
       -0.02684759 -0.06730562 0.05090345 -0.015193614
0001c0 0f 29 a1 bc bd b8 59 bd a5 fb ec 3b 5f f2 5d bc
       -0.019672899 -0.053154696 0.007232147 -0.013546555
0001d0 e7 8b 40 bd e6 0a 1a bd 49 3c 95 bc 3d 8d 08 bd
       -0.04700842 -0.03760805 -0.018217223 -0.03333782
0001e0 23 dd 96 bd 00 8b 6b bd c6 b3 ee 3b 04 e8 3d 3c
       -0.07366397 -0.057505608 0.0072846143 0.011590961
0001f0 e9 25 d9 bb 8e 43 11 3d 3d d9 e4 3c df a1 ac 3b
       -0.0066268337 0.035464816 0.027935619 0.00526832
000200 5a ce 47 3d 31 05 5e ba cd 2d 70 3c 5d db ec 3c
       0.048780777 -0.00084694015 0.014659357 0.028913194
000210 8d dd 8d 3c d7 6f 75 bd 9b 99 1c 3d b4 3e 05 bd
       0.017317558 -0.059921112 0.038232427 -0.0325305
000220 ba e6 ee bc a0 50 66 3d b6 82 59 bc cb bd 9d bc
       -0.029162753 0.056229234 -0.013275793 -0.01925554
000230 b3 44 54 3c ef bd fe ba f1 5b 2a 3c 91 63 b7 bc
       0.012955832 -0.0019435267 0.010397897 -0.022386344
000240 a1 4c cc 3b d4 38 a3 3c 47 29 b3 bb 18 fe e4 3c
       0.006234721 0.019924559 -0.005467567 0.027953193
000250 39 2c 14 3c 22 dd a0 bc 45 4a ca 3d 50 8d a8 3c
       0.009043747 -0.019636694 0.09877447 0.020575196
000260 c4 ef 9c bd 18 79 da bc ec 54 20 3d 4d 10 f6 3c
       -0.07662919 -0.02666907 0.039143488 0.03003707
000270 5a 6d e4 bd 24 8f be bd 9c 7c 8f bd 72 8d f4 ba
       -0.1115367 -0.09304646 -0.07006189 -0.0018657877
000280 33 18 06 bd 1d 54 1e bd 82 4f 29 bd f6 05 2b bc
       -0.032737922 -0.038654435 -0.04133559 -0.010438433
000290 54 70 61 3d 0e b4 20 3d 86 0b 81 3d 5b 9c a5 3d
       0.055038765 0.039234214 0.06301026 0.08086463
0002a0 70 11 c5 3d 60 dd 6b 3d d1 65 c1 3c db 6b 9e 3c
       0.096224666 0.057584167 0.02360812 0.019338539
0002b0 f4 b2 f9 bc 47 96 80 3c b8 f7 8a 3d 94 97 63 3d
       -0.03048084 0.015696658 0.0678553 0.055564478
0002c0 4c ee ff 3c 36 1d e4 bc 3a bc 57 bc 6b 6b 1f bc
       0.031241558 -0.02784596 -0.013167435 -0.0097302
0002d0 09 9d 94 bc 66 bd c4 39 a4 aa 20 b9 96 7c c4 bd
       -0.018141286 0.00037525146 -0.00015322358 -0.095940754
0002e0 ac b0 08 bd 25 fa 21 3d db 97 0a 3b 18 cc 71 39
       -0.033371612 0.039545197 0.0021147642 0.00023059582
0002f0 e8 49 e3 bd 18 46 be bd 58 f5 47 3c 1d 9b aa bb
       -0.11098081 -0.09290713 0.012204491 -0.005206479
000300 13 0f 4e bd e6 fc cc bd 54 bb ba bd 02 76 95 3d
       -0.050307345 -0.10009174 -0.09117761 0.07297899
000310 02 c8 cd bb e3 11 9c bd b2 b7 ab bd 36 fd 3c bd
       -0.0062799463 -0.07620599 -0.083846465 -0.04613992
000320 77 52 68 3d dd 05 15 bd 60 2b 33 bd 60 e7 a4 3d
       0.05671927 -0.036382545 -0.043742537 0.08051944
000330 f7 7c e2 3b f3 e2 f9 3a 46 32 49 bc ed fd ae 3c
       0.0069118696 0.0019064829 -0.0122800525 0.021361316
000340 7c 64 82 bc f3 ee dd bc a9 e7 ef 3c 3d 97 a0 3c
       -0.015917055 -0.027091479 0.029285269 0.019603366
000350 8c 1f 46 3d d8 04 e8 3b 14 6a 94 3c 67 df 3e bd
       0.04836993 0.0070806555 0.018116988 -0.04659977
000360 ea e0 32 3d da b3 3c bd f7 98 24 bd 19 58 48 3d
       0.043671526 -0.046069957 -0.04018494 0.04891214
000370 d1 95 81 bc 31 2b 6c bc 48 a3 d9 3c 5f eb 16 bd
       -0.015818508 -0.0144145945 0.026567116 -0.03684556
000380 e5 f6 91 3c 0d 7a 9d 3d 2c 17 be bb 80 d4 04 bd
       0.017817924 0.07689295 -0.005801102 -0.03242922
000390 07 fe 03 3d 14 73 9a 3d 86 c4 f1 bc 2e bf 89 bd
       0.03222468 0.07541481 -0.029512655 -0.06725918
0003a0 77 fd da bd 5c bd 83 bd 2b 8e f2 bc 92 10 63 bd
       -0.10692876 -0.06432602 -0.029608807 -0.055435725
0003b0 81 d7 94 bd 7d 17 aa bc 85 f3 fa bc 32 02 6c bd
       -0.072676666 -0.020763153 -0.030633697 -0.05761928
0003c0 98 23 0b bd a7 f7 81 bd 7c 82 1e bd 9c f7 7c bc
       -0.03396949 -0.06346064 -0.03869866 -0.015439894
0003d0 67 66 d5 bc ae 78 ad 3d ad b1 80 3d 5a 38 49 3d
       -0.026049806 0.084702834 0.06283889 0.049126007
0003e0 b7 65 8d 3d e4 54 e4 3c 84 cf ad bc 90 45 6d 3d
       0.06904166 0.02787251 -0.021217115 0.057927668
0003f0 a4 71 e3 bc 7b bb a9 3d 9b a8 8e 3d 98 a0 a7 3c
       -0.027764149 0.08287712 0.06965753 0.02046232

bias f4 [120]
000000 b7 73 a6 3c 80 f0 75 bd 9d 41 5a bc f4 1c 9c 3d
       0.020318849 -0.06004381 -0.0133213075 0.0762271
000010 f3 7a b6 bc ac 29 20 3d c9 24 d5 3b 9b bd a4 bd
       -0.022275424 0.03910224 0.0065046293 -0.08043977
000020 ec 26 90 bc cf 0f 26 3e b3 bb db 3d 03 ec b9 bc
       -0.017596684 0.16216968 0.1072916 -0.022695547
000030 c0 51 92 3d be be db 3d f4 1b 38 3d 84 d6 92 bb
       0.07144499 0.107297406 0.044948533 -0.0044811387
000040 bb 52 c6 3d 13 73 17 bc 33 14 a8 3d 37 d0 60 3e
       0.09683748 -0.009243744 0.08206978 0.21954428
000050 fd d1 9f 3d b1 a7 88 3b 17 f9 d3 3d 67 4a 01 3d
       0.07803724 0.004170381 0.103502445 0.031565096
000060 1a 62 08 bd 44 e0 cd 3d 87 ae 29 3d aa 42 80 3d
       -0.033296682 0.10052541 0.041426208 0.06262715
000070 6d cc ce 3c 3b ad 59 bc 96 ef 51 bd d3 99 3c 3b
       0.025243962 -0.01328593 -0.051253878 0.002877821
000080 81 bb 69 bc 89 30 e8 3b 04 07 d5 3d e6 8c 94 bd
       -0.014265896 0.007085864 0.10401729 -0.07253437
000090 0d e0 a6 bd ca e5 71 bb 33 ab 2e 3b 55 ce 80 3d
       -0.08148203 -0.0036910647 0.0026652336 0.06289355
0000a0 dc c8 c6 bc a9 aa 27 bd 34 bd 29 3d 34 11 03 bc
       -0.0242657 -0.04093424 0.041440204 -0.007999707
0000b0 30 3f cc 3c b8 9d 8a 3c 45 f1 49 bd 42 10 40 3c
       0.024932474 0.01692091 -0.04930236 0.011722626
0000c0 4c 75 05 3e 86 4e b9 3d 04 7c 03 3e 9e d5 01 bb
       0.13033026 0.0904818 0.12840277 -0.0019811164
0000d0 07 9b 5d 3e 99 84 04 3e e7 97 5a bd 4a e4 98 3d
       0.2164117 0.12941207 -0.05336752 0.07465418
0000e0 0b ba 29 3e 45 5d f5 bc 43 45 e9 3d 37 f3 d3 3d
       0.16574876 -0.029951701 0.11390164 0.10349124
0000f0 73 3b b4 bc a8 15 3b 3e 8a a6 28 bb 6c 02 ce bc
       -0.022001004 0.1826998 -0.002573403 -0.02514764
000100 96 e2 8a 3d 8c d2 9b 3d 46 9b 64 3c 69 38 c0 3d
       0.06781499 0.07608518 0.013953036 0.093857594
000110 0c 50 dd 3d 99 0b 38 be d8 c8 52 3d 32 ad 62 3d
       0.10806283 -0.17973174 0.05146107 0.055340953
000120 be ea 04 3e a7 8a 37 bc f9 0a b0 3b 85 09 4a 3c
       0.12980172 -0.011202491 0.005372402 0.012331371
000130 03 09 4f bd bc cc 3c 3d f2 0b 3d 3e 63 01 8c 3c
       -0.050545704 0.046093687 0.18461588 0.017090505
000140 84 65 3c 3e 9f f1 e0 bc af 7b e7 bc 5f 28 09 3d
       0.183981 -0.027458964 -0.02825722 0.033485767
000150 1b ce 68 3d 2b 34 b0 3d 17 1d fc 3b 82 94 f6 bc
       0.056837182 0.086037 0.0076938975 -0.03010011
000160 bb 4b 08 3d d6 0b 47 bd 09 ed a2 bd 09 2a 8a 3d
       0.033275347 -0.048595272 -0.07955367 0.06746299
000170 c9 cd 3f 3b 73 0d a1 3e 4d 96 c7 3d 7f b8 1b bd
       0.0029266945 0.31455573 0.097454645 -0.038017746
000180 4d 08 e4 bd 17 59 23 bc 1a 84 c0 bd eb 1f 1a bd
       -0.11134396 -0.009969971 -0.094001964 -0.037628096
000190 8b 41 59 3d 76 f3 02 bd f9 1a a3 bc b8 3a 3d bd
       0.053041022 -0.031970464 -0.019910323 -0.046198577
0001a0 79 4d e0 3d f4 25 0d 3e 12 dd 2a 3c cd f5 1f 3d
       0.10952277 0.13784009 0.010428684 0.039052773
0001b0 b0 2c 61 3d 91 bc 8d bd 4b 70 4d be 3a 37 9b bc
       0.054974258 -0.06920732 -0.20062368 -0.018947233
0001c0 ac 74 c8 bc b6 ad 31 bc 87 ac 04 bd 6b b4 af 3d
       -0.024469696 -0.010844639 -0.032391097 0.08579334
0001d0 d0 d9 55 3d de 08 8f 3b 07 ec 6c 3d 94 c2 9e 3c
       0.052209675 0.0043650707 0.05784228 0.019379891

weight f4 [84, 120]
000000 f5 82 80 bd 9a f4 cb 3d cd 02 29 bd 4a c9 af bc
       -0.06274978 0.099587634 -0.041262437 -0.021458287
000010 b8 c3 aa 3d 03 84 81 3d ab 2f 77 bc 44 08 b8 bb
       0.08338112 0.06324007 -0.0150870485 -0.0056162197
000020 dd 43 45 3d 73 a1 4b 3c c0 bb 85 bd e4 98 90 3d
       0.048160423 0.012428629 -0.06529951 0.070604116
000030 38 8b 65 3d ec d4 60 bd 97 c6 fc bc e4 c6 7c 3c
       0.056040972 -0.054890558 -0.030856414 0.015428279
000040 af 64 8b 3b 5b b4 aa 3d 7e 8a f4 bc 97 7d 1d 3d
       0.004253946 0.08335181 -0.029851194 0.03844985
000050 b3 c4 5e 3d 8b 1f a8 3d d0 be 48 bd 49 55 89 bd
       0.054386806 0.08209141 -0.049010098 -0.0670572
000060 58 60 9b 3d 09 c1 86 bd fd 96 a4 bd 1c da 2d 3d
       0.075867355 -0.06579787 -0.08036611 0.042444333
000070 15 87 d6 bd 5c b2 b4 bc 28 79 fa 3c 4d 72 bb 3c
       -0.104749836 -0.022057705 0.03057535 0.022881651
000080 27 fb d8 bb e9 72 63 bd 85 d9 82 3c a9 3b ae bd
       -0.0066217366 -0.05552951 0.015972862 -0.08507473
000090 9f fb 8a bd fe d7 6e 3d c0 ef ef bb 76 a6 9e bd
       -0.06786274 0.058311455 -0.0073222816 -0.07746594
0000a0 68 6a 2d bd f1 c3 7e bd 2c f8 16 bd f4 2b 57 bd
       -0.042337805 -0.062198583 -0.03685777 -0.05253215
0000b0 7e fb c4 bc 8f cd 34 bd eb d2 69 bc 85 12 53 bd
       -0.024045702 -0.04414135 -0.014271478 -0.051531333
0000c0 1b c6 60 3d f1 a1 10 3d d0 c8 c8 3c 07 6d af 3b
       0.054876428 0.03531069 0.024509817 0.0053535732
0000d0 02 92 53 3c 99 6b 44 3c 56 64 fe ba 19 14 2c bc
       0.012913229 0.011988544 -0.0019408565 -0.0105028385
0000e0 8d 89 db 39 5d bd 0c bc 99 fc 84 bd 36 a1 3e bc
       0.00041873418 -0.00859007 -0.06493492 -0.011635115
0000f0 51 75 bf 3d 41 96 aa 3d 0d 7f a8 bc e5 af b6 3d
       0.09348548 0.0832944 -0.020568395 0.08920268
000100 da 25 e7 3b 79 96 9f bd 75 ed bf 3d 6e 29 cf bd
       0.007054073 -0.07792372 0.09371463 -0.10115324
000110 13 21 04 bd f2 1f aa 3d 5d 7d 96 3d 81 5d 9e bd
       -0.032258105 0.08306874 0.0734813 -0.07732678
000120 74 e9 8c bd e1 64 b0 bd 58 67 b8 bd d4 e4 65 bd
       -0.06880465 -0.08612991 -0.09004086 -0.05612643
000130 54 a1 ce bd ef 4c 26 3c 58 19 80 3b 0b 07 7c 3d
       -0.10089365 0.010150178 0.003909271 0.061530154
000140 3d a6 d2 bd 30 67 8a bb 7e 77 88 bd 80 40 3c 3d
       -0.10285614 -0.0042237267 -0.06663416 0.04595995
000150 ac 2d 82 bd af 1f 53 3d 1e 89 61 3d 61 39 51 3d
       -0.063563675 0.051543888 0.055062406 0.05108011
000160 f6 8a c0 3c 9c 16 09 bc 7f 3c dd 3d 33 8d 03 3d
       0.023503762 -0.008367207 0.10802554 0.03211708
000170 af c0 87 3c cc 06 7f bb 2c 56 3d bd 66 37 1d 3c
       0.01657137 -0.0038913963 -0.046224758 0.009595728
000180 54 a5 16 3d cf 34 48 3c 7f 8d 77 3d 74 bb 44 bc
       0.036778763 0.012219622 0.060437676 -0.012007583
000190 b4 9e 71 bd 79 a9 fb 3a fe 86 0e bd 72 7d 4f 3d
       -0.05898924 0.0019200287 -0.034796707 0.050656743
0001a0 ad 97 19 bd 59 e1 7a bd 39 f0 4a bd f2 74 39 bd
       -0.037498165 -0.061250065 -0.0495455 -0.045277543
0001b0 77 51 a3 bd ea a1 87 3c ae 2c 47 bd 3a dc b3 3c
       -0.079745226 0.016556699 -0.048626594 0.021955598
0001c0 e4 1c 01 3d ed 0a 45 3d a9 46 0b 3d 34 a6 b9 bd
       0.031521693 0.048106123 0.034002934 -0.09064904
0001d0 76 5c 58 3d e3 19 df bc 5f 93 f5 3c 60 7e 88 bd
       0.052822553 -0.027234023 0.029977499 -0.06664729
0001e0 ab 0c c4 bd 38 68 99 bc 0a 15 bd 3d d1 30 9a 3d
       -0.09572729 -0.018726453 0.092325285 0.07528842
0001f0 d1 c3 9d bd 65 09 48 3d 6e e7 85 bd bd 7b 70 bd
       -0.07703365 0.048837084 -0.06538282 -0.058711756
000200 3b 26 7c bd 53 dd 06 3d ff 21 c6 3d ca 6b a8 bd
       -0.061559897 0.032925915 0.09674453 -0.08223684
000210 fe 3b ce 3c 3b 17 04 bd 2b a3 cc bd 26 13 e6 bd
       0.02517509 -0.032248717 -0.09992059 -0.11234121
000220 76 a3 ad bb 22 fd bc 3d 03 d8 5c 3d e7 08 99 bd
       -0.005299027 0.09227969 0.053916942 -0.07472401
000230 51 2b 02 bb fd 0d b8 bd 49 3d 16 be ec 27 83 bd
       -0.0019862244 -0.08987043 -0.14671816 -0.06404099
000240 b8 93 21 bd 9d f8 84 bd 35 19 28 bd 62 17 fa bc
       -0.039447516 -0.06492732 -0.041039664 -0.030528728
000250 0e 9b 0f be 2a 51 0e bc 60 51 06 3b 23 8c 47 bd
       -0.14023992 -0.008686343 0.002049528 -0.04871763
000260 0a 65 26 bc 6c f8 01 3d 72 97 07 bb 35 66 6f bd
       -0.0101559255 0.031731054 -0.0020689634 -0.05844708
000270 ed 5a a0 bc 24 34 40 3d 33 7b 8b bd c7 fe 98 bd
       -0.019574607 0.046924725 -0.06810608 -0.0747047
000280 14 57 38 3d 7e 2e ca 3d 3c 6f fc 37 35 03 45 3d
       0.04500492 0.09872149 3.0092539e-05 0.04809876
000290 d4 23 5a bd b9 89 23 3d b9 6e 65 bd 61 98 4c 3d
       -0.053256825 0.039926264 -0.056013796 0.049950007
0002a0 79 f9 e4 3d a1 26 99 bd 20 56 b5 bd 78 0b 6a bd
       0.11180396 -0.07478071 -0.08854318 -0.057139844
0002b0 2d 20 1d 3d df 07 6a 3d 18 e2 48 3d 21 2c 97 3d
       0.038360763 0.057136413 0.049043745 0.07381464
0002c0 e0 57 a0 3c 86 5c 31 bd 47 3e 8f bd 64 01 ed 3c
       0.019573152 -0.043301128 -0.069943 0.028931327
0002d0 e3 8a 50 bc 4a d2 63 3d a8 6f d4 3c fa 69 63 bd
       -0.012728426 0.05562047 0.025932148 -0.05552099
0002e0 13 17 6b 3c 28 c2 23 3c a8 cc 1f bd d5 c6 2d 3d
       0.014348763 0.009995021 -0.039013535 0.04242595
0002f0 f7 cc 80 bb 0b 9d ac bc 41 6b 8e bd 19 1d d8 3d
       -0.0039306837 -0.021070978 -0.06954051 0.10552425
000300 8e 1e fa 3c 9f 57 47 bd 38 87 9a 3d d9 a2 97 b9
       0.030532148 -0.048667546 0.07545322 -0.00028922295
000310 73 2d 18 bd 45 1f 85 bd 8d 28 30 3d fb 78 90 bd
       -0.03715272 -0.06500105 0.043007422 -0.07054325
000320 23 85 0a bd 33 7a 21 bd 27 8c ea bc 24 3d cc bd
       -0.033818375 -0.03942318 -0.028631283 -0.09972599
000330 72 ff db 3d 13 9b 1d bc c9 35 9d bd ed 2d ac bd
       0.10742082 -0.009619492 -0.07676274 -0.08407197
000340 d0 73 5b 3c 77 f3 a2 3d 65 6e e4 bb 2c e2 5f 3d
       0.013394311 0.079565935 -0.006971168 0.054659054
000350 a5 35 ae 3d 5e 04 b7 3d cb e4 0f bd 46 09 2c bd
       0.08506326 0.0893638 -0.035130303 -0.04200103
000360 39 30 60 bc 53 a6 57 3d ad f9 31 bc e3 3d 86 3d
       -0.013683372 0.052648854 -0.01086275 0.06554773
000370 6d ca b8 3d a5 b0 a1 3d 1d fc 93 bd be fe 06 3e
       0.09022985 0.078950204 -0.07225821 0.13183114
000380 9d 02 0d 3d 83 63 fc 3c 5c 79 13 3d 79 1b b4 3d
       0.03442632 0.03080917 0.03600441 0.087943025
000390 47 a2 1d bd 44 2d 0f 3d 40 30 d3 bd a0 8e bf 3d
       -0.038484838 0.034955278 -0.10311937 0.093533754
0003a0 23 76 26 bd a2 5a 49 bc ad 3c a5 bd b6 2d 8c 3d
       -0.040640008 -0.012289675 -0.080682136 0.06844656
0003b0 8d 72 88 3d 1a e8 91 3c 57 f4 12 3c bb 84 aa 3b
       0.06662474 0.01781087 0.008969388 0.005203811
0003c0 4a d9 08 3d 86 cd c9 3d fc 3d 82 3d 3c aa d9 bc
       0.033410348 0.098536536 0.06359479 -0.026570432
0003d0 da ef 7e 3d d0 07 d1 bd 55 6a 6e bd 3b 67 5e be
       0.06224046 -0.10206568 -0.058206875 -0.21719067
0003e0 38 b5 01 3d e4 76 29 3e f5 29 1a bd 1d f0 09 be
       0.031666964 0.1654926 -0.03763767 -0.13470502
0003f0 d6 99 f5 bb 51 37 71 3d 68 25 c5 bd a0 c2 78 bd
       -0.0074951453 0.058890644 -0.09626275 -0.060732484

bias f4 [84]
000000 58 40 2e bd f1 88 c2 3c 40 de ef 3e b1 63 ba 3d
       -0.04254183 0.02374694 0.4684925 0.09101046
000010 80 6c e2 3d 90 08 18 3e c7 bf d5 3b 07 01 61 3d
       0.11055851 0.14847016 0.006523106 0.05493262
000020 9f bc aa bc 80 e4 34 be da 88 b4 3c 09 47 6a bd
       -0.020841895 -0.17665291 0.022037912 -0.05719665
000030 34 92 87 bd 40 de 36 3c 77 a6 5b 3e 2a f6 1b bc
       -0.06619683 0.011161387 0.2145022 -0.009519139
000040 60 85 c6 bc ec e0 1b 3d 9c 57 a8 bc 3b a7 d8 3d
       -0.02423352 0.0380563 -0.020549588 0.10578772
000050 8c c4 b0 bd 98 ab dc 3b 91 ea e0 bd 4a 06 64 3e
       -0.08631238 0.0067343228 -0.1098224 0.22268024
000060 60 90 7e 3e 14 2d 08 be 52 76 71 3d 9c cf a6 3d
       0.24859762 -0.13298446 0.05895073 0.08145067
000070 ce 4b 0e 3e 45 29 1f 3d 83 50 3d bd e6 9f 75 bc
       0.13896105 0.038857717 -0.04621936 -0.014991736
000080 47 41 c6 3d ff f8 a5 3d ff 06 64 3e 2c b7 2b 3c
       0.096804194 0.08104133 0.22268294 0.010480683
000090 c3 5a 6d 3e 72 2f 5c bc ff 5e 0e bd 26 9e ab 3d
       0.23179154 -0.013439046 -0.034758564 0.08379774
0000a0 d6 72 68 3d 6d e8 b1 bd 5c 32 95 bd 38 c0 e3 3c
       0.05675014 -0.0868691 -0.07284996 0.027801618
0000b0 af 51 a2 3d d7 c4 11 3d be 20 4f 3e e2 d8 b3 3e
       0.07925736 0.03558811 0.20227334 0.35126406
0000c0 78 f2 14 bd 83 39 20 3e 0d 0c 6b 3e c6 a7 7b 3e
       -0.03636405 0.15646939 0.22953816 0.24575719
0000d0 81 b5 5f 3e 2f 79 45 3e 07 33 98 bd a2 0e 3a 3d
       0.21846582 0.19284509 -0.07431608 0.04542411
0000e0 93 32 c8 3d ea ba c9 bd 9f 1e 3c 3f 57 67 2b 3e
       0.09775271 -0.09850104 0.73484224 0.1673864
0000f0 11 b3 09 be be 6e ab bc ba e4 6a 3d 9b 9d 8b 3e
       -0.13447215 -0.02092683 0.057347037 0.2726868
000100 41 65 14 bb 88 b8 39 3c cd 2f 85 3e 13 0e 1a 3e
       -0.002264336 0.0113355 0.26013032 0.15044431
000110 ca c2 e1 bd 96 fc 30 bd e1 ec 47 3d 27 2a 8e bc
       -0.11023481 -0.043209635 0.04880989 -0.017354084
000120 32 7f b2 3d fd f7 a4 bd dc 12 88 bd 14 df 3a 3d
       0.08715667 -0.080551125 -0.06644222 0.0456229
000130 07 ca d8 3c 9a a6 9d 3d 4a 69 a4 3d 4f 8b 39 bd
       0.026463522 0.07697792 0.08027895 -0.04529887
000140 3a c6 d7 bd b1 02 09 3e a0 d8 a7 3d 82 e8 42 bd
       -0.105358556 0.13379933 0.08195615 -0.047585018

weight f4 [10, 84]
000000 a4 d4 67 bd 86 d8 f8 3b 46 60 cb bd d7 ae a8 b8
       -0.056599274 0.007594171 -0.09930472 -8.043431e-05
000010 5d 9d e6 bc 22 e7 54 3e 4d 51 c4 3d 35 0c bd 3d
       -0.028151209 0.20791295 0.095858194 0.09230844
000020 37 54 32 3d ce 65 9d 3d b0 51 3a 3c 85 4f e9 3c
       0.043537345 0.07685433 0.011372015 0.0284803
000030 81 d7 ca 3c a5 ea 7e 3e f4 e6 b9 bd 2a 20 84 3d
       0.024760963 0.24894197 -0.09077254 0.06451447
000040 95 7f 6c 3d ba 5b b6 bc fb bc a5 bc 2b 8f 00 bd
       0.05773886 -0.022260536 -0.020231714 -0.031386536
000050 37 32 10 be 70 89 fb 3d cb ce 51 3d 54 22 83 bd
       -0.14081655 0.122820735 0.051222604 -0.06403032
000060 cf b5 b5 bd 8b 89 1b 3e fc 5a 38 3e ed 9f 5e 3d
       -0.08872568 0.15189187 0.18003458 0.054351736
000070 d2 87 de 3d 40 aa d6 3d 60 1e 27 3d 83 f9 2d bd
       0.108657494 0.10481691 0.040800452 -0.04247428
000080 24 e2 ba 3d 7a 12 3a bb f9 ec fd bc fd fa 68 3e
       0.09125164 -0.002839236 -0.030996786 0.22751994
000090 2e ef 1d be d9 d6 16 be 22 59 55 3d c1 69 32 be
       -0.15423271 -0.14730395 0.052086957 -0.17423154
0000a0 c8 a0 93 3d a3 65 b0 bd 1f d2 54 bd b1 2e 89 3d
       0.07208401 -0.08613136 -0.0519582 0.06698359
0000b0 e5 20 81 3e 53 a3 a8 bd df d2 07 3e c3 99 15 3d
       0.2522041 -0.082342766 0.13264035 0.03652359
0000c0 2a 97 ad bd ba aa a0 3d 7a 30 92 bd 4c 94 86 bd
       -0.08476098 0.078450635 -0.071381524 -0.06571254
0000d0 39 ea 97 3e 12 8d 2d 3e a2 8b b3 bc 8f 8b d2 3d
       0.29670885 0.16948345 -0.021917168 0.10280525
0000e0 3e 6d 0b be ca 8e 3c 3c 91 9a b3 be bf 85 af 3e
       -0.13615891 0.011508653 -0.35078862 0.34281728
0000f0 f8 36 c8 bd 49 f3 0b 3d bd d0 8c 3d a1 f7 6e 3c
       -0.097761095 0.03416756 0.06875751 0.0145854065
000100 2f f9 b2 bd 7a 0b 89 bd 72 06 7e 3e 33 ff 56 be
       -0.08738934 -0.06691642 0.24807146 -0.20995788
000110 16 c9 14 3e 12 89 0e be 60 c8 47 3e 06 58 b0 bb
       0.14529833 -0.13919476 0.19510031 -0.005381587
000120 88 b1 3a be 96 aa d0 bd 36 c4 18 3d e8 90 64 be
       -0.18231785 -0.10188787 0.037296496 -0.22320902
000130 7e 25 45 3e c2 1a ee 3c 51 2e d6 3d 1d a8 3b 3d
       0.19252583 0.029065493 0.10458053 0.045814622
000140 f7 62 14 3d 20 7b 80 3e 93 3d 91 3e e1 56 83 bd
       0.036227193 0.25093937 0.2836729 -0.06413055
000150 ad 5d af bd d5 6c bc bd be ad a8 be 02 b2 4c bd
       -0.08562789 -0.092004456 -0.32945055 -0.04997445
000160 72 e7 3f 3d 2c 7a b1 3c a5 bd 55 bd 9a 23 bd bc
       0.046851583 0.021664701 -0.052182812 -0.023088265
000170 e8 45 57 bd fa 17 54 3e 0e b1 20 3d 72 cc bc bc
       -0.052556902 0.20712271 0.039231353 -0.023046706
000180 cd 57 10 bd de 71 62 3d 56 73 73 be b2 fe e2 3d
       -0.035239983 0.055284373 -0.23774466 0.110837355
000190 87 dc 30 bc 19 03 3f 3e 7a 21 19 3d d9 22 88 be
       -0.010794765 0.18653525 0.03738544 -0.26589087
0001a0 73 53 9a 3d c6 0c 99 3b 11 7a 25 be 37 77 34 3c
       0.07535448 0.004670712 -0.16159846 0.011014751
0001b0 de d4 9f bd ad 7c 36 3e d7 c7 13 3e 3e 81 3e 3e
       -0.07804273 0.17820998 0.14431702 0.1860399
0001c0 8c 6b 18 be 4c 84 bd 3d 6a f9 6c 3d 17 ae c1 bd
       -0.14884776 0.09253749 0.057855047 -0.09457033
0001d0 42 75 2e 3e 42 95 f2 bd 95 7d f5 bd 35 a5 28 3c
       0.17036918 -0.11844875 -0.119868435 0.010293295
0001e0 2c be 82 be 40 8d bf 3d 31 b8 37 3e 2f 64 b7 3e
       -0.25535715 0.09353113 0.17941357 0.35818622
0001f0 ff a7 b1 3d 99 35 3c 3d 58 44 68 bc 20 de 0e 3e
       0.08674621 0.045949552 -0.014176451 0.13951921
000200 03 f4 f3 bd bd 9e 10 be 1e 61 7a be fe 44 68 be
       -0.11911776 -0.14123054 -0.2445111 -0.22682568
000210 1d ca ab 3d 57 ce 60 3e 68 30 36 3d b3 7d db bd
       0.083881594 0.21953712 0.044479758 -0.107173346
000220 ec 71 86 bd 81 23 5e be 5c 2f 8c bc df 34 cc bb
       -0.065646976 -0.21693231 -0.017112426 -0.0062318887
000230 81 1e a4 bd be 5b c0 3d e5 28 98 be 1c c7 2a 3e
       -0.08013631 0.093924984 -0.297187 0.16677517
000240 d2 3e af bd a4 16 6e 3c f5 2b 2d bd 76 85 98 be
       -0.08556904 0.014531765 -0.04227825 -0.29789323
000250 8d 03 8f bc 38 4d ce bd 09 9b db bc c2 59 a6 bd
       -0.017457748 -0.10073322 -0.026807325 -0.08122589
000260 f1 05 07 3e a5 ee b5 3e 5c c8 7f be a7 0d 45 3e
       0.1318586 0.35533634 -0.24978775 0.19243489
000270 1f 91 bd bd 55 fd 00 3e 5b d2 10 3e 04 dc 7a be
       -0.09256195 0.12596639 0.14142744 -0.24497992
000280 68 c9 f9 3c 0c 21 33 3d c9 c2 81 3e 41 bb db bc
       0.030491546 0.043732688 0.25343922 -0.026822688
000290 ef b7 5a bb d7 c0 9d 3e cb 52 1f 3e f4 9a c6 bd
       -0.0033373793 0.30811188 0.15558927 -0.09697524
0002a0 38 ff cd 3d 31 a8 6a 3e 12 fa 03 bd f1 40 c9 3d
       0.10058445 0.22915722 -0.032220908 0.0982684
0002b0 d7 fe ef bd 51 96 79 bc b1 b8 17 3e 4e 0f fb bc
       -0.11718529 -0.015233592 0.14816548 -0.030646946
0002c0 b1 6f d3 bd 1b 35 69 bd ad 51 8b bd f3 55 a4 3d
       -0.10324038 -0.05693541 -0.06802688 0.08024206
0002d0 21 32 65 3d d3 b4 0b be 66 1e 23 3e 18 1c c1 bd
       0.05595601 -0.13643198 0.15929565 -0.094291866
0002e0 26 78 5b bc 20 8a b0 bd 2a 1e 8e bd db 71 56 3e
       -0.013395345 -0.08620095 -0.06939347 0.2094187
0002f0 dc 19 b9 3d 3d 16 cf 3d 5b 79 38 be 8c 1f 50 3c
       0.090381354 0.101116635 -0.18015043 0.012702834
000300 37 97 1a 3d 01 91 52 3e f7 b1 e0 bd f8 97 27 bd
       0.037741866 0.20563127 -0.10971444 -0.040916413
000310 20 7c 89 3e 45 ce 28 be 45 4c db bd 99 9e 2f 3e
       0.26852512 -0.16484936 -0.10707907 0.17150344
000320 d5 fd 37 be e8 7e 0c be 17 02 7a be 23 57 e6 3c
       -0.17967923 -0.13720286 -0.2441486 0.028117722
000330 fe 25 65 3d 2b 81 a6 3d 33 f2 ff 3d 43 6a 07 be
       0.055944435 0.081301056 0.12497368 -0.1322413
000340 39 62 73 3c 0f 4b 9e 3d 74 6c 88 bd ea 95 30 be
       0.014854961 0.0772916 -0.06661311 -0.17244688
000350 f9 fb cb 3c 7f a9 10 bd ff a4 1d 3e 91 7b 9a 3d
       0.024900423 -0.035317894 0.15394972 0.075431
000360 f0 cd 93 3d fb d5 cd bc e2 9b 72 3b 42 ed 2b bc
       0.07217014 -0.025126448 0.0037019183 -0.010493578
000370 82 b1 b3 3c 03 0d 6e 3e 9e cc 6d 3d fb b9 97 3d
       0.021935228 0.23247151 0.058056466 0.0740852
000380 4d ed 82 bd d9 c4 2f bd 2f cc b4 3e 5d 33 f1 3d
       -0.06392918 -0.042912338 0.3531203 0.11777375
000390 36 77 55 bd 96 d2 ac bd 8f ff 1f bd 74 28 a0 3e
       -0.05211564 -0.084386036 -0.03906208 0.31280863
0003a0 42 57 fc bd da 3e e2 bd 47 57 b2 3c 3b 3d 5b bc
       -0.123213306 -0.11047144 0.021770133 -0.013381298
0003b0 40 fa c5 bd 21 68 60 bd 4d cc 91 3d f0 b7 78 3c
       -0.09666872 -0.054786805 0.071190454 0.015180573
0003c0 a9 53 59 3e 1c aa f2 bd 9c 46 eb 3d 7d df 96 3d
       0.2122332 -0.11848852 0.11488077 0.07366846
0003d0 20 3a 28 3e df 49 2f bd e7 1d a5 bd 84 f0 b5 bd
       0.16428423 -0.04279506 -0.08062344 -0.08883765
0003e0 e0 6f ee bc 0c d7 1b 3d 37 25 1f bd 88 3c 40 3d
       -0.02910608 0.03804688 -0.03885385 0.046932727
0003f0 f3 a5 a6 3d 21 51 2b be b9 ed 2a 3e bc 80 fe 3a
       0.08137121 -0.16730167 0.16692246 0.0019417028

bias f4 [10]
000000 51 28 9f be d3 2d c8 be a1 25 72 3c 4d b1 a3 3e
       -0.31085446 -0.3909746 0.014779479 0.31971207
000010 4a f7 13 3f 7d 21 34 be e2 af ea 3e 17 50 ac be
       0.5779921 -0.175909 0.45837313 -0.33654854
000020 37 51 f6 3d bd 7f c8 be
       0.12027209 -0.39159957
